Assignment_27/last_actor.pth (torch, 540176 bytes, 6 tensors)

layer_1.weight f4 [400, 28]
0	0x3bbdd613	0.005793342
1	0x3defa48d	0.117013074
2	0xbe29ad18	-0.16569936
3	0xbe086acf	-0.13321994
4	0xbd83e83f	-0.06440782
5	0x3d64d466	0.05586662
6	0x3c13ddbd	0.0090250345
7	0x3e11b4ff	0.14229201
8	0xbbeba42e	-0.0071912026
9	0x3d142cfb	0.03617571
10	0xbd38c671	-0.045111123
11	0xbd699f9f	-0.057036992
12	0xbe385bbb	-0.18003742
13	0xbe0bfaa0	-0.13669825
14	0xbdb6c8b2	-0.08924998
15	0x3cf4be28	0.02987583
16	0x3db10427	0.0864337
17	0x3dd18fd7	0.102325134
18	0xbe0ce619	-0.1375965
19	0xbd80af63	-0.06283452
20	0x3d7edcd4	0.062222317
21	0x3e13aff7	0.14422594
22	0xbcfb1426	-0.030649256
23	0x3e0cbbd1	0.13743521
24	0xbd1587b0	-0.036506355
25	0x3c642f8f	0.0139273545
26	0x3e2908ed	0.16507311
27	0xbe43c43f	-0.1911783
28	0xbe1f16b0	-0.15535998
29	0xbda8c6bb	-0.0824103
30	0xbd1bb54e	-0.038014702
31	0x3d716225	0.05893149
32	0xbe3f039b	-0.18653719
33	0xbbbb5f24	-0.0057181288
34	0xbe88b811	-0.26702932
35	0xbdb42cc3	-0.087976
36	0xbe1399c5	-0.14414127
37	0x3e74f492	0.23921421
38	0x3d364ec5	0.044508714
39	0x3c2ed6d0	0.0106713325
40	0x3d041800	0.03224945
41	0xbe1c850d	-0.1528513
42	0x3d83f1c6	0.06442599
43	0xbde9a3d3	-0.114082
44	0xbe30c50b	-0.17262666
45	0xbd89230e	-0.06696139
46	0x3e167713	0.1469386
47	0x3dd986ab	0.10621389
48	0xbd622013	-0.05520637
49	0x3e05c954	0.13065082
50	0x3dc04099	0.09387321
51	0x3e2f76f1	0.17135216
52	0x3de74d5d	0.11294053
53	0x3d80e759	0.06294126
54	0x3e266ee2	0.16253236
55	0xbd97d2d8	-0.07413262
56	0xbd2cbd8f	-0.042172965
57	0xbe697ee6	-0.22802314
58	0xbd59a247	-0.053133275
59	0xbe063aa9	-0.13108315
60	0x3d97d7c4	0.07414201
61	0x3d246c2b	0.04014222
62	0xbdcf7e7d	-0.101315476
63	0x3cdd1e21	0.026991906
64	0x3ca57404	0.020196922
65	0xbc8b0c69	-0.016973691
66	0xbd91d19b	-0.07120057
67	0x3d82e325	0.06390981
68	0x3e4ca3da	0.1998438
69	0x3e572f84	0.2101422
70	0xbd88d964	-0.06682089
71	0xbdd58ed8	-0.10427636
72	0xbc0e902d	-0.008701366
73	0x3e1746c8	0.14773095
74	0x3e78c6d4	0.24294597
75	0x3e0a6021	0.13513233
76	0x3dea80db	0.114503585
77	0xbdc5c55b	-0.09656783
78	0xbd75a31c	-0.059970006
79	0xbd50cf55	-0.050978977
80	0xbdcb352e	-0.099222526
81	0x3e7a9a97	0.24473034
82	0x3e620090	0.22070527
83	0xbddafb04	-0.10692409
84	0x3d0899dc	0.033349857
85	0x3d0297ab	0.031882923
86	0xbd179deb	-0.037015837
87	0xbd970fd3	-0.07376065
88	0x3d5d8647	0.054083135
89	0xbdd9b202	-0.106296554
90	0x3d8a75e7	0.06760769
91	0x3dba7d74	0.091059595
92	0x3e3a84c4	0.18214709
93	0x3d7d80e5	0.0618905
94	0xbe36e740	-0.17861652
95	0xbded8681	-0.1159792
96	0x3dceb54f	0.100931756
97	0x3cf7f3c4	0.030267604
98	0xbe205ed5	-0.15661176
99	0xbdc20b1f	-0.094747774
100	0x3e860d77	0.26182148
101	0x3df87c4f	0.12133085
102	0xbdb9043c	-0.09034011
103	0xbc85ffb7	-0.016357286
104	0xbe58c04e	-0.21167108
105	0xbc2c8d34	-0.010531712
106	0xbe09bcfe	-0.13451001
107	0xbe104f1a	-0.14092675
108	0xbc1b52ba	-0.009480173
109	0x3cec618a	0.028855104
110	0xbd85432e	-0.06506954
111	0x3de68d73	0.11257448
112	0xbdec1530	-0.11527479
113	0x3e251d0d	0.16124363
114	0x3e2f9da3	0.17149977
115	0xbe5b2683	-0.2140141
116	0xbdb5c3a1	-0.08875204
117	0xbdee1b34	-0.11626282
118	0xbda0abd8	-0.078452766
119	0x3dba88aa	0.09108098
120	0x3d849fda	0.06475802
121	0xbc3cf0e2	-0.01153204
122	0xbe16e8d7	-0.14737259
123	0x3e7b19b7	0.24521528
124	0xbe7b005d	-0.24511857
125	0xbe09d21c	-0.13459057
126	0x3b0ef1c4	0.0021811584
127	0xbe42a4a0	-0.19008112
128	0xbdaf92f3	-0.0857295
129	0xbe47376c	-0.19454736
130	0xbb50fc53	-0.0031888678
131	0xbdd63710	-0.10459721
132	0xbda0799d	-0.07835696
133	0x3cb1cd87	0.021704448
134	0x3dde4b5b	0.10854217
135	0x3e2830a3	0.16424803
136	0xbcb2a2e2	-0.021806184
137	0xbd2e8ddb	-0.042615753
138	0x3c692fbe	0.014232574
139	0x3dbef11e	0.09323333
140	0x3e2dceed	0.16973467
141	0x3de6b6aa	0.11265309
142	0x3e404ab3	0.18778495
143	0xbdbbb139	-0.09164662
144	0xbe724d43	-0.23662286
145	0xbcff0b18	-0.03113322
146	0x3d19c7c4	0.037544027
147	0x3d4299d9	0.04751
148	0xbdce72a7	-0.10080462
149	0xbd7b07db	-0.06128679
150	0xbe41978c	-0.18905467
151	0xbe635be7	-0.22203027
152	0xbd283322	-0.04106439
153	0x3d6d4a6d	0.057932306
154	0x3ddca34a	0.107733324
155	0xbe0c820c	-0.13721484
156	0x3dde758a	0.108622625
157	0xbdc1ee40	-0.09469271
158	0xbd1ccfa8	-0.038283974
159	0xbdcd419d	-0.1002228
160	0xbd06ea97	-0.032938566
161	0x3db3741b	0.0876238
162	0xbe2e8a15	-0.17044862
163	0xbe155df6	-0.14586625
164	0xbc9694f2	-0.01838157
165	0x3c55cff3	0.013050067
166	0xbd9c86e3	-0.07642915
167	0x3da6dfee	0.0814818
168	0xbe6d6f51	-0.23186995
169	0xbd538514	-0.051640585
170	0x3e73e583	0.2381802
171	0x3c10e3cc	0.0088433735
172	0x3e7d0716	0.24709734
173	0xbc834b96	-0.016027253
174	0xbd4c8f4d	-0.04994135
175	0x3d2b562b	0.041830223
176	0xbdb9b054	-0.09066835
177	0xbe32eb9d	-0.17472692
178	0x3daec4de	0.08533643
179	0xbd8989eb	-0.06715759
180	0xbcf9b99b	-0.030484011
181	0x3d81a49b	0.06330224
182	0x3e572463	0.21009974
183	0xbd37c4b6	-0.044865333
184	0x3cea03f6	0.028566342
185	0xbbfdd868	-0.007746745
186	0x3ce4806b	0.027893266
187	0xbdaa7a6e	-0.08324133
188	0xbe539696	-0.20662913
189	0xbd701d72	-0.05862183
190	0x3d8b8a9b	0.06813546
191	0x3e1834b0	0.14863849
192	0xbde68161	-0.11255146
193	0x3c21f04c	0.009883951
194	0xbdf8a54a	-0.121409014
195	0xbdcfb9f0	-0.10142887
196	0xbe0a2d13	-0.13493757
197	0x3d05cb2e	0.03266447
198	0xbdb1152a	-0.08646615
199	0xbcb2f67f	-0.021846054
200	0xbd62d7d7	-0.055381622
201	0x3e31e81c	0.17373699
202	0xbe3bfe9e	-0.18358847
203	0xbddecb96	-0.10878675
204	0xbe06676f	-0.13125394
205	0x3e22a185	0.15881927
206	0xbdc48137	-0.09594958
207	0x3e00957f	0.12557028
208	0x3d98a635	0.074535765
209	0xbc9902d7	-0.018678112
210	0x3cd0d4cf	0.0254921
211	0x3d874d4b	0.06606539
212	0x3a83f613	0.0010067843
213	0xbd5f5b3f	-0.05453038
214	0x3cc66217	0.024216695
215	0x3daab3af	0.08335053
216	0xbe187da4	-0.14891678
217	0xbda41dd5	-0.080135025
218	0x3e01fb6f	0.1269357
219	0xbe250a46	-0.161172
220	0x3c4a26a9	0.012338319
221	0x3e58d03a	0.21173182
222	0x3dba80f4	0.09106627
223	0x3cf26498	0.029588982
224	0xbe27b485	-0.16377456
225	0x3dbfbae4	0.093618184
226	0xbe09d636	-0.13460621
227	0xbd5bbb4c	-0.053645417
228	0xbd81db5d	-0.06340668
229	0xbce542db	-0.02798598
230	0x3b0774b9	0.0020668937
231	0x3e1f9d61	0.15587379
232	0x3cc1491e	0.023594435
233	0x3e2d5519	0.16926993
234	0x3decbff1	0.115600474
235	0xbdf4b077	-0.119477205
236	0x3dad9779	0.08476157
237	0xbe08cc0f	-0.13359092
238	0xbda4077e	-0.080092415
239	0x3d63abe7	0.05558386
240	0x3d7f99ff	0.06240272
241	0x3e112ee6	0.14178047
242	0xbd792e45	-0.06083514
243	0x399e7ec5	0.0003023056
244	0x3dc741c3	0.0972934
245	0xbe3b264e	-0.18276331
246	0x3e0be8cb	0.13663022
247	0xbe20064b	-0.156274
248	0x3b2ad9af	0.002606969
249	0xbd03987a	-0.032127835
250	0xbdcbd758	-0.09953183
251	0x3ccca377	0.02498029
252	0x3da06c24	0.07833126
253	0xbddaca94	-0.1068317
254	0xbccc08ca	-0.024906535
255	0xbdd13476	-0.10215084

layer_1.bias f4 [400]
0	0x3e0b212f	0.13586877
1	0x3e1e260a	0.15444198
2	0x3e272ec8	0.1632644
3	0xbd8f0929	-0.06984169
4	0x3daddb63	0.0848911
5	0x3b2b8ba3	0.002617576
6	0x3e55a225	0.20862634
7	0x3e00bd75	0.12572272
8	0x3d5432bf	0.051806208
9	0x3e04ea1a	0.12979928
10	0x3d8d29ed	0.06892762
11	0x3d3e5d6e	0.04647582
12	0xbcac767a	-0.021052588
13	0xbdf6cca2	-0.12050749
14	0x3d9dbe81	0.07702351
15	0x3d36fad3	0.0446728
16	0x3e162ecf	0.14666294
17	0x3e29c95d	0.1658072
18	0xbdd5576e	-0.104170665
19	0xbd0640a8	-0.032776505
20	0xbe018918	-0.12649953
21	0x3e37e446	0.17958173
22	0x3ce2eeea	0.027701814
23	0xbe0ed008	-0.13946545
24	0x3e4d4e0d	0.20049305
25	0x3e19f6eb	0.15035598
26	0xbd60afdb	-0.05485521
27	0x3d71664c	0.05893545
28	0x3d524bd8	0.05134186
29	0x3d16165e	0.036642425
30	0x3dd9ca67	0.10634308
31	0x3c2f4603	0.010697844
32	0xbcc137d0	-0.023586184
33	0x3d0865c1	0.033300165
34	0xbd5c5b8b	-0.05379824
35	0x3e0c941b	0.13728373
36	0x3e8546aa	0.26030475
37	0xbdc5ec2c	-0.09664187
38	0x3d823c8f	0.06359207
39	0x3e0dad24	0.13835579
40	0x3dea29d9	0.11433763
41	0x3b027b71	0.0019910003
42	0x3d2aa54a	0.04166154
43	0x3d834aed	0.06410775
44	0xbe29cd70	-0.16582274
45	0x3d05588b	0.032555144
46	0xbd816267	-0.06317597
47	0x3c8076f5	0.015681723
48	0x3e2f69c4	0.1713019
49	0xbdcdafa8	-0.100432694
50	0x3d0463b8	0.03232166
51	0x3e3d572e	0.18490288
52	0x3e0c3db8	0.13695419
53	0x3c992a48	0.01869692
54	0x3ca49367	0.020089818
55	0xbd509ca2	-0.050930627
56	0x3ce0363a	0.027369607
57	0x3e37a507	0.17934047
58	0x3d9626dd	0.07331631
59	0x3e766aaf	0.24064134
60	0x3e6fe4cc	0.23427123
61	0xbcdfaf96	-0.027305406
62	0x3d495e39	0.049162123
63	0x3db5e8c7	0.088822894
64	0x3c681fce	0.014167739
65	0x3da4d1c7	0.08047824
66	0xbdeb821c	-0.11499426
67	0x3d205173	0.039140176
68	0x3df099a9	0.11748058
69	0xbe4bad1f	-0.19890259
70	0x3d7d9e62	0.061918624
71	0x3d24e714	0.040259436
72	0x3dedbc30	0.116081595
73	0xbe32e016	-0.17468295
74	0x3e3149b4	0.17313272
75	0xbe12857c	-0.14308733
76	0x3e4710ca	0.19439998
77	0x3e060708	0.1308862
78	0xbd953d03	-0.07287028
79	0xbe00b1db	-0.12567846
80	0x3e5a0258	0.21289957
81	0x3e3255f4	0.17415601
82	0xbdcdeda1	-0.1005509
83	0xbc07c6a1	-0.008287103
84	0xbe00b384	-0.1256848
85	0xbdc999e6	-0.09843807
86	0xbc68c50d	-0.014207137
87	0x3e45e343	0.19324975
88	0x3deab777	0.114607744
89	0x3e402477	0.1876391
90	0xbe01e29c	-0.12684101
91	0xbd1700fd	-0.036866177
92	0x3d0c3283	0.03422786
93	0xbdd03a92	-0.101674214
94	0x3ccb6572	0.024828646
95	0x3daa82eb	0.08325752
96	0x3dfbe849	0.12300164
97	0xbcd615be	-0.026133414
98	0x3c0615e2	0.008183928
99	0x3e014cd4	0.12626964
100	0xbd78fb12	-0.060786314
101	0x3e39bc42	0.18138221
102	0x3e2c34fc	0.16817087
103	0xbc9acc11	-0.018896135
104	0x3d1f9390	0.038959086
105	0xbd472160	-0.048615813
106	0x3e3b6def	0.18303655
107	0xbced6226	-0.028977465
108	0xbc95f117	-0.018303437
109	0x3e23f03f	0.16009615
110	0x3d9ad281	0.07559682
111	0x3dee8b94	0.11647716
112	0xbd98f5a3	-0.074687265
113	0xbe27f8f7	-0.16403566
114	0x3d52abd3	0.051433396
115	0x3e496ebd	0.1967115
116	0x3e6e4900	0.23270035
117	0xbd4ffe33	-0.050779533
118	0x3e2123bf	0.15736292
119	0xbe092acc	-0.13395232
120	0x3e2b4ebb	0.16729252
121	0xbc383afe	-0.011244534
122	0xbd1fda6c	-0.039026663
123	0x3daf30ba	0.08554216
124	0x3e42867d	0.18996616
125	0x3e07fad6	0.1327928
126	0x3bd6d34b	0.00655595
127	0x3d40b802	0.047050484
128	0x3e490e0d	0.19634266
129	0xbd3a309a	-0.045456506
130	0x3d4e261b	0.05032931
131	0x3e2527bb	0.16128437
132	0x3b26ad12	0.0025432748
133	0x3e2b6df0	0.16741157
134	0xbe24b449	-0.16084398
135	0xbdbf87fd	-0.093521096
136	0x3d1f59a1	0.038903836
137	0x3c92848e	0.017885473
138	0xbdc5e13b	-0.096621
139	0x3d21b336	0.03947755
140	0xbc8f766d	-0.017512525
141	0x3e000c23	0.1250463
142	0x3e008bb7	0.12553297
143	0xbe0d218f	-0.13782333
144	0x3dd86cf8	0.10567659
145	0x3e0de52a	0.1385695
146	0x3e110796	0.1416305
147	0xbdbcacbd	-0.09212635
148	0xbd801cf0	-0.062555194
149	0xbb0d6369	-0.0021574146
150	0x3da7f9ba	0.082019284
151	0x3d98993d	0.07451103
152	0xbe15a601	-0.14614107
153	0x3e1ea194	0.15491325
154	0x3e3d117f	0.18463705
155	0x3d1a1ede	0.037627093
156	0x3db1ad86	0.08675675
157	0x3dd00b7e	0.10158442
158	0xbd53aaef	-0.051676687
159	0xbe49b091	-0.19696261
160	0x3e0741f1	0.13208748
161	0x3e2e82c3	0.17042069
162	0x3c0ecbd5	0.0087155895
163	0xbe053f52	-0.13012436
164	0x3ce975a1	0.028498473
165	0xbdfd66a5	-0.123730935
166	0x3dbb9ca8	0.09160739
167	0x3e30e832	0.17276075
168	0x3e3de900	0.18545914
169	0x3e3beef4	0.18352872
170	0x3d42ed1f	0.047589418
171	0x3e419511	0.1890452
172	0xbd224246	-0.039613985
173	0xbc00ae0a	-0.007853994
174	0xbe0c981f	-0.13729905
175	0x3dcdb093	0.100434445
176	0x3da31f5c	0.07964966
177	0x3dd930c5	0.10605005
178	0x3e4be92c	0.19913167
179	0x3e263e47	0.16234694
180	0xbe30fb4a	-0.17283359
181	0xbd987e2c	-0.074459404
182	0xbe2e6913	-0.1703227
183	0x3ddadbd9	0.10686464
184	0x3da814c1	0.082070835
185	0xbe2b303f	-0.16717623
186	0x3daa3a89	0.08311946
187	0xbdd5ecb8	-0.10445541
188	0x3d2b9aaf	0.041895565
189	0x3db773c9	0.08957631
190	0x3e103284	0.1408177
191	0x3dd6d270	0.104893565
192	0x3b8c5dc4	0.0042836387
193	0x3d096d57	0.03355154
194	0x3bc3f351	0.0059799333
195	0xbe3fdd97	-0.18736874
196	0xbda56c14	-0.08077255
197	0x3e48cdf9	0.19609822
198	0x3dc5f3b8	0.09665626
199	0xbe38d6eb	-0.18050735
200	0x3db82884	0.08992103
201	0x3e44f018	0.19232213
202	0xbe1d1c8e	-0.15342924
203	0xbd357015	-0.044296343
204	0xbe02ce90	-0.1277411
205	0x3cca38e6	0.024685334
206	0xbd26120e	-0.040544562
207	0x3e2a0f7b	0.16607468
208	0x3e00d788	0.12582219
209	0xbbace8d5	-0.005276779
210	0xbe2798e1	-0.16366912
211	0xbdfe0b67	-0.124045186
212	0xbd22be0b	-0.03973202
213	0x3dcd1337	0.100134306
214	0xbd421220	-0.047380567
215	0xbd756cd6	-0.059918247
216	0xbccd6fb1	-0.025077673
217	0xbe1f7ffa	-0.15576163
218	0x3d120110	0.035645545
219	0xbe2de17f	-0.16980551
220	0x3d54dbfa	0.0519676
221	0xbe22a250	-0.1588223
222	0xbd74d60f	-0.059774455
223	0x3d53f4ef	0.05174726
224	0x3c6e13bb	0.014531071
225	0xbdb7746d	-0.08957753
226	0x3c38dd4f	0.011283233
227	0xbd7b511c	-0.06135665
228	0x3b8eea63	0.004361437
229	0x3d1c19b2	0.038110442
230	0x3bc6d4fd	0.0060678707
231	0xbe2a17f8	-0.16610706
232	0xbd547445	-0.051868696
233	0x3cbdcf92	0.023170266
234	0x3db8bfea	0.0902098
235	0xbdf210ff	-0.11819648
236	0x3dd7dfc0	0.10540724
237	0x3d257455	0.040394146
238	0x3cb23236	0.021752458
239	0x3d4cb06a	0.04997293
240	0x3cad37a3	0.021144694
241	0x3d5dafd2	0.054122753
242	0x3e27bd36	0.16380772
243	0x3d336eb1	0.043806735
244	0x3e14a533	0.14516144
245	0x3e07e2ba	0.13270083
246	0x3e2efe01	0.17089082
247	0x3908ef26	0.0001305906
248	0x3dbbccee	0.091699466
249	0x3ba371e4	0.004987942
250	0x3de8359e	0.11338352
251	0xbca2f8ed	-0.019894088
252	0x3d132e92	0.035933085
253	0x3c931f76	0.017959338
254	0xbe30215b	-0.17200224
255	0x3ddbaa80	0.1072588

layer_2.weight f4 [300, 400]
0	0x3d217cf5	0.03942581
1	0xbd740c3f	-0.05958199
2	0xbce62dd5	-0.028098026
3	0x3d00dfc3	0.031463396
4	0x3d0d82fb	0.03454874
5	0xbd673044	-0.056442514
6	0x3c0f6c8f	0.00875391
7	0xbd76072e	-0.06006544
8	0xbd146cab	-0.036236446
9	0x3c8a03cd	0.016847515
10	0xbd13a02d	-0.036041427
11	0xbc6d517a	-0.014484758
12	0xbce74fae	-0.028236236
13	0xbd64d2f9	-0.05586526
14	0xbd646b61	-0.055766467
15	0x3c1c2416	0.009530088
16	0x3c9ba857	0.01900117
17	0xbca86a7a	-0.020558584
18	0x3ceadbdf	0.028669296
19	0xbd3ac063	-0.04559363
20	0xbcad080d	-0.021122003
21	0xbd60062e	-0.054693393
22	0x3d0dcbb7	0.034618106
23	0x3b8f3cd2	0.004371264
24	0xbc16077b	-0.009157057
25	0xbd137c9a	-0.0360075
26	0xbd646161	-0.05575693
27	0x3d0be381	0.03415251
28	0x3cb6c44d	0.0223104
29	0xbc93980e	-0.018016841
30	0xbc032b4b	-0.008005927
31	0x3b567d34	0.0032728435
32	0xbd11384b	-0.035454076
33	0x3d1b758e	0.037953906
34	0xbb55f516	-0.0032647303
35	0xbc0abb04	-0.00846744
36	0x3d007613	0.031362604
37	0xbd0a2003	-0.033721935
38	0x3cef414a	0.029205937
39	0xbcacb213	-0.021081006
40	0xbd4d0a94	-0.050058916
41	0xbcaffa11	-0.021481546
42	0xbcfa6414	-0.0305653
43	0x3d0e8e6e	0.0348038
44	0xbb8c75cf	-0.004286505
45	0xbd3be8ed	-0.045876432
46	0xbd1896fa	-0.037253357
47	0xbd12ed70	-0.03587097
48	0xbd6e82d9	-0.058230255
49	0xbc4b5794	-0.012411017
50	0x3a3c3600	0.00071796775
51	0xbd6eeeaf	-0.058333095
52	0x3b5ae73c	0.0033401987
53	0xbcb1934c	-0.021676682
54	0xbc9ab3d7	-0.018884582
55	0xbd57d855	-0.052696545
56	0x3ce2097d	0.027592415
57	0xbc942590	-0.018084317
58	0xbb001947	-0.0019546316
59	0xbc0a4172	-0.008438455
60	0x3c4de7d3	0.012567478
61	0x3c635c03	0.013876918
62	0xbc576e55	-0.013148864
63	0xbcc63523	-0.02419526
64	0xbc54028b	-0.012940059
65	0xbd57f203	-0.052721035
66	0x3c339607	0.010961062
67	0xbca46087	-0.02006556
68	0x3d04d5c7	0.032430436
69	0x3d17c5a2	0.03705371
70	0x3b04d998	0.0020271298
71	0xbcdb8e36	-0.02680121
72	0xbc5f6eed	-0.013637287
73	0x3cde2f64	0.027122207
74	0xbca904d9	-0.020632194
75	0x3c5ac563	0.013352725
76	0xbd25a858	-0.04044375
77	0xbc134cad	-0.008990449
78	0x3c61a38e	0.013771905
79	0x3cc81dd9	0.024428295
80	0xbb364a1a	-0.0027815164
81	0xbbacf41c	-0.0052781235
82	0xbccba874	-0.024860598
83	0xbd0b17e4	-0.03395833
84	0x3d433e8b	0.047667067
85	0xbcad4367	-0.021150304
86	0xbce809fc	-0.028325073
87	0x3ccf66ed	0.025317634
88	0x3d281698	0.041037172
89	0xbce364cb	-0.027758023
90	0xbced1a60	-0.02894324
91	0xbd41d712	-0.047324248
92	0x3c65e92d	0.014032644
93	0xbca808eb	-0.020512065
94	0xbd009623	-0.03139318
95	0xbd2be668	-0.04196778
96	0xbccfa525	-0.025347302
97	0x3c8415f0	0.016123742
98	0xbd456e48	-0.048200876
99	0x3c524044	0.012832705
100	0xbd4bbe96	-0.049742304
101	0x3d44a1d7	0.048005905
102	0xbd3a8c12	-0.045543738
103	0x3d225648	0.039633065
104	0xbc9e3f3b	-0.01931726
105	0x3c94a652	0.018145714
106	0xbc69aced	-0.01426242
107	0xbd118f7e	-0.035537235
108	0xbca2256d	-0.019793237
109	0x3c20ff3f	0.00982648
110	0x3c82f6b1	0.015986772
111	0x3d0ad899	0.03389797
112	0xbc178fde	-0.009250609
113	0x3c9abc63	0.018888658
114	0x3cb55a77	0.022137864
115	0xbd0094cb	-0.0313919
116	0xbcb58c7c	-0.022161715
117	0x3c3fe2a7	0.011711753
118	0xbc924ce6	-0.017858934
119	0x3c6898c0	0.014196575
120	0x3c873f12	0.016509566
121	0xbbfb28f3	-0.0076647936
122	0xbc672833	-0.014108705
123	0x3d0a42cd	0.033755112
124	0x3ca04850	0.019565731
125	0xbd73191b	-0.059350114
126	0xbd40872b	-0.047003906
127	0xbc066d9a	-0.008204842
128	0xbcf60517	-0.030031724
129	0x3d22fc07	0.039791133
130	0x3cd47eaf	0.025939314
131	0x3cb2e140	0.021835923
132	0x3cf9e099	0.030502604
133	0x3cda8b47	0.02667774
134	0x3d29066a	0.041265883
135	0x3aeaaa00	0.0017903447
136	0x3d315810	0.043296874
137	0x3c885567	0.016642286
138	0x3c7074ea	0.014676312
139	0xbcf8c525	-0.030367443
140	0x3c577d97	0.013152502
141	0xbd5a8779	-0.053351853
142	0xbc2242bd	-0.009903607
143	0xbd1483cb	-0.0362585
144	0xbbc7fb58	-0.0061029606
145	0xbbbd9053	-0.005785027
146	0xbc860093	-0.016357696
147	0x3d1b9ef3	0.037993383
148	0xbd55be24	-0.052183285
149	0xbd773647	-0.060354497
150	0xbbfa1e5e	-0.0076330146
151	0xbd06c3d5	-0.032901604
152	0xbd07ece7	-0.033184912
153	0xbd276341	-0.04086614
154	0x3cef9a11	0.02924827
155	0xbd32cbc9	-0.043651376
156	0xbd2876dd	-0.04112898
157	0x3d12e477	0.035862412
158	0xbd03b1c5	-0.032151956
159	0xbc537da1	-0.01290837
160	0xbd27b6d6	-0.04094585
161	0x3b70e307	0.0036756413
162	0x3d03fae5	0.032221694
163	0xbd1390f7	-0.03602692
164	0xbd412224	-0.0471517
165	0x3cabb3d0	0.020959765
166	0xbd2937c5	-0.04131295
167	0x3c091e84	0.008369092
168	0x3ca4bcb2	0.020109508
169	0x3cdd28bc	0.026996963
170	0xbb8ff251	-0.0043929
171	0x3d0fde2b	0.035123985
172	0xbc5ad9da	-0.013357604
173	0x3c8fdc7a	0.017561186
174	0xbc7e203a	-0.015510613
175	0xbd1a5e23	-0.037687432
176	0x3b7a4e5c	0.0038193678
177	0x3c84a213	0.016190564
178	0x3c435973	0.011923182
179	0x3caeab46	0.021321904
180	0xbc35137a	-0.011052007
181	0x3c11e2a9	0.008904138
182	0x3ccc3ef0	0.024932355
183	0xbd382547	-0.044957425
184	0xbc1ed767	-0.009694911
185	0x3ca47a8f	0.020077972
186	0xbca3db6a	-0.020002086
187	0x3cfdccae	0.030981388
188	0x3c4dd2e8	0.012562491
189	0xbd02740d	-0.031848956
190	0x3ce2b425	0.02767379
191	0xbcfacc5b	-0.030615022
192	0x3d050e60	0.032484412
193	0x3d20ab7f	0.03922605
194	0x3cb27f78	0.021789297
195	0x3cf79a35	0.030224899
196	0x3b836e67	0.0040109637
197	0xbd5647d6	-0.0523146
198	0x3ce7a313	0.028276002
199	0x3b9d71f3	0.0048048436
200	0xbcfd00a2	-0.03088409
201	0xbc989874	-0.018627383
202	0xbcf05107	-0.029335512
203	0x3c409c1c	0.011755969
204	0xbd7428e1	-0.059609298
205	0x3c4868c1	0.0122320065
206	0xbd716a50	-0.058939278
207	0xbd100f69	-0.035170946
208	0x3cbf26e6	0.023333978
209	0xbc9523d0	-0.018205553
210	0x3d0e93ca	0.03480891
211	0x3cef0c29	0.029180603
212	0xbcd7f122	-0.026360098
213	0xbc28f1fe	-0.010311602
214	0xbd48d09e	-0.049027078
215	0xbcd3ac27	-0.025838925
216	0x3c9dc823	0.019260472
217	0xbcce7b02	-0.02520514
218	0x3cf59b6f	0.029981343
219	0x3cdbc37d	0.026826615
220	0x3d02f348	0.031970292
221	0x3d204800	0.039131165
222	0xbbf664f5	-0.0075193592
223	0xbafeb000	-0.0019431114
224	0xbc21bf4d	-0.00987227
225	0x3d12de6e	0.035856657
226	0x3d0ccbad	0.034373928
227	0xbd497465	-0.049183268
228	0x3c3083f7	0.01077365
229	0xbcc8a1ba	-0.02449118
230	0x3d00cff4	0.03144832
231	0xbcec22a0	-0.028825104
232	0xbd4a4d88	-0.049390346
233	0x396d1e9e	0.00022613487
234	0xbd38b870	-0.04509777
235	0x3d1a2484	0.03763248
236	0x3d12748b	0.035755675
237	0xbd3a426b	-0.045473497
238	0xbc9ead34	-0.019369699
239	0xbbd0b833	-0.0063696145
240	0xbd6a8ba0	-0.057262063
241	0xbd47327a	-0.048632123
242	0x3d121cc9	0.035671983
243	0x3d16b81f	0.036796685
244	0xbccbd2ee	-0.024880853
245	0x3c06d3c3	0.008229199
246	0xbc784494	-0.015153069
247	0xbb3b2622	-0.0028556664
248	0xbc6856e9	-0.014180877
249	0x3bddab3d	0.006764798
250	0xbd197038	-0.037460536
251	0x3d30ca50	0.04316169
252	0xbca0756f	-0.019587247
253	0x3d49d690	0.04927689
254	0xbce35e5d	-0.027754957
255	0xbc82323b	-0.015893092

layer_2.bias f4 [300]
0	0x3cf5c6c6	0.03000201
1	0xbc8c5339	-0.017129527
2	0x3b8e310c	0.004339343
3	0x3ca5498b	0.02017667
4	0x3d89bf1b	0.067259036
5	0xbcc6c30a	-0.024262924
6	0xbd770f35	-0.060317237
7	0xba1d2814	-0.0005995047
8	0x3d987f51	0.07446159
9	0xbb8dddb7	-0.004329409
10	0xbc2e184f	-0.010625913
11	0x3bbec9b2	0.005822384
12	0xbc38fcde	-0.011290757
13	0xbb94d0ef	-0.0045415084
14	0x3d064967	0.032784846
15	0x3cd348b3	0.025791502
16	0x3d2eeda5	0.042707104
17	0xbc20f5a5	-0.009824191
18	0xbc8a9249	-0.016915457
19	0x3ce37eb9	0.027770387
20	0xbd14f063	-0.036362063
21	0xbd1da0cd	-0.03848343
22	0x3d4aafc8	0.049484044
23	0xbc559549	-0.013036081
24	0xbd41046e	-0.047123365
25	0x3d824689	0.0636111
26	0xbcbc0d32	-0.02295551
27	0x3ac2695b	0.0014832424
28	0x3c4337ad	0.01191513
29	0x3cf5258e	0.029925134
30	0x3d0150fa	0.031571366
31	0x3d11cae6	0.03559389
32	0x3cfcc744	0.030856736
33	0xbcdb9b73	-0.026807522
34	0x3b6bcfb5	0.0035981957
35	0x3aaf5409	0.0013376485
36	0x3d81140c	0.06302652
37	0x3bc97d96	0.006149004
38	0xbc3d1040	-0.011539519
39	0x3b008d62	0.001961552
40	0x3cefcb3a	0.02927171
41	0x3b2efd9e	0.002670146
42	0x3c45dc98	0.012076519
43	0x3c4ed9ea	0.012625197
44	0xbcec3d84	-0.028837927
45	0x3cf33087	0.029686226
46	0x3c0d2071	0.008613692
47	0x3ca894f9	0.020578848
48	0xbd18cfd1	-0.037307564
49	0xbd304ec4	-0.043043867
50	0x3cbbb6f7	0.022914393
51	0x3d30b97d	0.043145645
52	0x3cf3e3c7	0.029771699
53	0xbd5eba10	-0.05437666
54	0x3cc91df0	0.024550408
55	0x3cf1857c	0.029482596
56	0x3cb1da26	0.021710467
57	0x3c6b66da	0.014367783
58	0xbb745793	-0.0037283644
59	0x3c74b388	0.014935382
60	0xbb57d7d4	-0.003293504
61	0xbc39f6d1	-0.0113503495
62	0x3ba290de	0.004961117
63	0xbc7ecd55	-0.015551885
64	0x3cef9106	0.029243957
65	0x3d5ebe37	0.05438062
66	0xbb547acb	-0.0032421823
67	0x3d1016f4	0.03517814
68	0xbceae399	-0.02867298
69	0x3cf80289	0.030274646
70	0xbc80fd4a	-0.015745778
71	0xbd4f7adb	-0.050654273
72	0x3d56929e	0.05238592
73	0x3c384ad9	0.011248314
74	0x3d143c2a	0.03619019
75	0xbb58e951	-0.0033098052
76	0x3c5e73a0	0.013577372
77	0xbd678118	-0.056519598
78	0xbd84219d	-0.06451724
79	0xbc1d9d4a	-0.00962002
80	0xbd1ff31b	-0.039050203
81	0x3d17db38	0.037074298
82	0xbd1b749d	-0.037953008
83	0xbcad275a	-0.021136928
84	0x3cb9ba6c	0.0226719
85	0xbc2939c7	-0.010328717
86	0xbd5dfa4a	-0.054193772
87	0xbcdabeba	-0.026702274
88	0xbc3d5a2d	-0.011557144
89	0xbacc4053	-0.0015583135
90	0x3ccaf125	0.02477319
91	0xbcc141ca	-0.023590941
92	0xbd6058fe	-0.05477237
93	0xbc469051	-0.012119369
94	0xbd14430f	-0.036196765
95	0x3dc988f7	0.09840577
96	0xbd25e772	-0.040503927
97	0xbd1a628e	-0.037691645
98	0x3dd4ede9	0.1039694
99	0x3ce21336	0.027597051
100	0x3ca1bba0	0.019742787
101	0x3d740bb2	0.059581466
102	0x3cbc6b73	0.023000455
103	0x3d332785	0.04373886
104	0xbbb46712	-0.005505451
105	0x3cf56a41	0.029957892
106	0xbce9ba25	-0.028531143
107	0x3dcc05f4	0.09962073
108	0x3caa6442	0.02079976
109	0xbd33d7e3	-0.043907057
110	0x3c9f7810	0.01946643
111	0x3d3b009c	0.045654878
112	0xbd54ca7c	-0.051950917
113	0x3d7c3076	0.061569653
114	0x3cfcc219	0.030854272
115	0xbcb55f02	-0.02214003
116	0x3c925829	0.017864304
117	0x3d7756a2	0.060385354
118	0xbcfa13a5	-0.030526945
119	0x3cf6e906	0.030140411
120	0xbcdededf	-0.027205883
121	0x3d45ac19	0.04825983
122	0xbc14fff8	-0.009094231
123	0x3d32a696	0.0436159
124	0xbd3b9257	-0.045793857
125	0x3cf5dd22	0.03001267
126	0x3cef1e32	0.029189203
127	0x3c135c20	0.008994132
128	0xbbe96f9f	-0.007123902
129	0xbab67700	-0.0013920963
130	0x3c8f1952	0.017468128
131	0xbd4bb2e2	-0.049731143
132	0xbc784534	-0.015153218
133	0x3cce3cb8	0.025175437
134	0xbca82af0	-0.020528287
135	0xbba531af	-0.005041323
136	0x3d742b6e	0.05961173
137	0xbd03b0bb	-0.032150965
138	0x3cc4b115	0.02401022
139	0xbb999345	-0.0046867453
140	0xbc8c5893	-0.01713208
141	0x3c014623	0.007890257
142	0x3d176000	0.036956787
143	0xbd0e2dd9	-0.034711692
144	0xbd0cbdad	-0.034360576
145	0x3d8bef0d	0.06832705
146	0x3c1162f0	0.008873686
147	0x3c80a376	0.015702944
148	0x3d2accfa	0.041699387
149	0x3d213035	0.039352614
150	0x3d7f6d5b	0.06236015
151	0x3c15462d	0.0091109695
152	0xbc7523d6	-0.014962157
153	0xbc39d970	-0.011343345
154	0x3ab72dc7	0.0013975435
155	0xbcdce433	-0.026964283
156	0x3cab3211	0.020897897
157	0xbce34b55	-0.027745882
158	0xbca9aef7	-0.020713313
159	0xbd2a0a70	-0.04151386
160	0x3c243eac	0.010024708
161	0x3ca9efe0	0.020744264
162	0xbce69e2f	-0.0281516
163	0xbb23ee7b	-0.0025013972
164	0xbd09e963	-0.03366984
165	0xbadda458	-0.001690994
166	0xbce93aa4	-0.028470345
167	0xbd3826c7	-0.044958856
168	0x3c958c8c	0.018255495
169	0xbb773d7b	-0.0037725854
170	0x3d10a19c	0.035310373
171	0x3b5773e5	0.0032875475
172	0x3b400006	0.002929689
173	0x3ceddfae	0.029037323
174	0x3d0ac221	0.033876542
175	0x3cc99703	0.02460814
176	0xbd12fc6a	-0.035885252
177	0xbd23255d	-0.039830554
178	0x3c508f38	0.0127294585
179	0xbcee03d1	-0.029054554
180	0xbce15240	-0.02750504
181	0x3cea29e8	0.028584436
182	0x3d27c57c	0.04095982
183	0x3d25ab94	0.040446833
184	0x3c8ca8c9	0.017170327
185	0x3be1fa22	0.0068962732
186	0x3d781be1	0.060573462
187	0x3caa0cd2	0.020758066
188	0xbc08aa08	-0.00834132
189	0x3d795381	0.06087065
190	0xbc3da580	-0.011575103
191	0xbcbc0303	-0.022950655
192	0xbd3d64aa	-0.04623858
193	0xbcfadb8a	-0.030622263
194	0x3d030dd9	0.031995628
195	0xbc3c1f96	-0.01148214
196	0xbd029cf7	-0.031887975
197	0xbced153b	-0.028940788
198	0x3b05e2c8	0.0020429362
199	0x3c52c1ec	0.012863617
200	0xbd4c173a	-0.049826838
201	0x3c6e1e45	0.014533584
202	0x3d261f68	0.040557295
203	0x3c20e319	0.009819769
204	0xbd0d806f	-0.034546312
205	0x3c90ad47	0.01766075
206	0xbc9cbeb9	-0.019133912
207	0xbc3b4152	-0.011429148
208	0x3b9d5448	0.004801307
209	0xbcc8f895	-0.024532596
210	0xbc864679	-0.016391026
211	0x3dc93e2b	0.09826311
212	0x3c3148c7	0.010820574
213	0xb9b98eac	-0.00035392249
214	0x3cd0012a	0.02539118
215	0x3b642099	0.0034809469
216	0x3cc04071	0.023468228
217	0xbd3b3f75	-0.045714814
218	0x3c1633d8	0.009167634
219	0x3cefdc9c	0.02928
220	0xbd3a836c	-0.04553549
221	0xbce06e51	-0.027396353
222	0x3d81b8d8	0.06334084
223	0xbc0b12ef	-0.008488401
224	0x3d1b8df2	0.037977166
225	0xbd82d4f4	-0.06388274
226	0x3bc0d410	0.005884655
227	0xbc4d9a93	-0.01254906
228	0xbbff5007	-0.0077915224
229	0x3cd3ed73	0.02587006
230	0xbc000844	-0.007814471
231	0xbceca33b	-0.028886428
232	0xbc908bf1	-0.017644854
233	0xbcada3b9	-0.021196233
234	0x3e22ba16	0.15891299
235	0xbd6c46d1	-0.057684723
236	0x3c425fa1	0.01186362
237	0x3d0ad44a	0.03389386
238	0xbca6a67f	-0.020343063
239	0x3d49d4d2	0.049275227
240	0x3c3dbd4e	0.011580778
241	0xbd5101ce	-0.05102711
242	0xbc70bac6	-0.014692968
243	0xbd4906c3	-0.049078714
244	0x3c8589c1	0.016301038
245	0x3c55126f	0.013004883
246	0xbd40e9fb	-0.04709814
247	0xbc7b76ef	-0.01534818
248	0xbd0733fd	-0.033008564
249	0xbd25fee3	-0.040526282
250	0xbd0bd3e2	-0.034137614
251	0xbd02341b	-0.031787973
252	0x3ae8a4cc	0.0017749309
253	0xbd57b40b	-0.052661937
254	0x3d12b608	0.03581813
255	0x3c743534	0.014905263

layer_3.weight f4 [8, 300]
0	0xbd3188f1	-0.043343488
1	0x3d2c713c	0.042100176
2	0x3d7757cb	0.06038646
3	0x3cbc11d5	0.022957722
4	0x3d8683ac	0.06568083
5	0xbd137ff7	-0.03601071
6	0x3c3aca78	0.011400811
7	0x3d548efe	0.05189418
8	0xbc6556ad	-0.013997716
9	0xbc5b3111	-0.013378398
10	0xbc46a469	-0.012124159
11	0x3d0ad73c	0.03389667
12	0x3d80cfe7	0.06289654
13	0x3c86b606	0.016444217
14	0xbc7efef0	-0.0155637115
15	0xbd20686f	-0.039162096
16	0xbd4491ae	-0.047990493
17	0xbd3a44ff	-0.045475956
18	0xbcfa74ab	-0.03057321
19	0xbcd9aa42	-0.026570443
20	0x3d2f3a80	0.0427804
21	0x3d0308e3	0.031990897
22	0x3d780394	0.060550287
23	0xbc2a5928	-0.010397233
24	0x3d552b0e	0.052043013
25	0x3d605e94	0.054777697
26	0x3d18c00e	0.037292533
27	0x3d2d9414	0.042377546
28	0x3d86a730	0.06574857
29	0x3d239eb6	0.03994628
30	0xbcc38c92	-0.02387074
31	0x3d37cadb	0.044871192
32	0xbc196aad	-0.009363812
33	0xbd637c6f	-0.05553859
34	0x3d9d5fd8	0.07684296
35	0x3cd4c5aa	0.02597316
36	0x3d3293b0	0.043597877
37	0xbbfeb3a7	-0.007772881
38	0x3d73b392	0.059497423
39	0xbcfa76a1	-0.030574145
40	0xbcbc3fb3	-0.022979593
41	0x3c7e29dd	0.015512911
42	0x3d68bde3	0.056821715
43	0x3bd196db	0.006396157
44	0x3d555e47	0.052091863
45	0x3c674a9d	0.01411691
46	0x3ccba200	0.024857521
47	0xbc92179c	-0.017833523
48	0x3cddce6b	0.027075967
49	0x3d520012	0.0512696
50	0x3d7da5c0	0.06192565
51	0x3d608d90	0.054822505
52	0x3d64bc4a	0.05584363
53	0xbcf5db6b	-0.030011853
54	0xbbd7c0f1	-0.0065842797
55	0xbcee5cce	-0.029096987
56	0xbcd15096	-0.025551122
57	0x3d338fba	0.04383824
58	0xbd23f36e	-0.040027075
59	0xbd1e9aa5	-0.0387217
60	0x3d73bfaa	0.059508957
61	0x3d375217	0.04475602
62	0xbd1b1e3f	-0.03787064
63	0xbd0d777e	-0.034537785
64	0x3d18f605	0.037343998
65	0x3d864dd2	0.06557812
66	0xbd6718fa	-0.056420304
67	0xbbb9d55e	-0.0056711873
68	0x3d735832	0.05941028
69	0x3cd926ab	0.026507696
70	0xbd121d19	-0.03567228
71	0x3c484af7	0.012224904
72	0xbb676f25	-0.003531405
73	0x3cc9bd78	0.024626479
74	0x3c5155c9	0.0127768
75	0x3c8593ef	0.016305892
76	0x3c976386	0.018480074
77	0x3cb1974b	0.021678587
78	0x3abf009c	0.0014572325
79	0xbd1df556	-0.03856405
80	0xbcbd1742	-0.02308238
81	0x3d57f9bb	0.052728396
82	0x3d81cd58	0.06337994
83	0x3d199040	0.037491083
84	0x3d199d7a	0.037503697
85	0x3d19b7b0	0.037528694
86	0xbd313a36	-0.043268405
87	0x3c853335	0.016259769
88	0xbd04530d	-0.032305766
89	0x3c80b818	0.015712783
90	0x3bcbaba1	0.006215528
91	0xbccd5b40	-0.025067925
92	0xbd4b9779	-0.049705002
93	0xbd290746	-0.041266702
94	0xbcfd5832	-0.030925844
95	0x3d5498be	0.05190348
96	0x3c9d1c6f	0.019178597
97	0x3d3a518c	0.045487925
98	0x3e9b78b9	0.30365542
99	0x3d16fb2e	0.036860637
100	0x3d160924	0.03662981
101	0x3c9ed328	0.019387797
102	0x3d3c49fd	0.045969
103	0xbcecaf0c	-0.028892063
104	0x3d113814	0.03545387
105	0x3bcd3bb8	0.0062632225
106	0x3cc95d65	0.024580667
107	0x3d414e96	0.047194086
108	0x3d224f1b	0.039626222
109	0xbc8d7291	-0.017266544
110	0x3a4764dd	0.00076062774
111	0x3d8513f3	0.06497946
112	0x3d4854ad	0.048908878
113	0x3c2ccf64	0.010547493
114	0x3d134799	0.035956953
115	0xbc878f2a	-0.016547758
116	0xbcd06e38	-0.025443181
117	0x3c954211	0.01821998
118	0x3bde2ccf	0.006780244
119	0x3c5dbee6	0.013534283
120	0xbd000c94	-0.031261995
121	0x3d103e2b	0.035215538
122	0xbd557ed3	-0.052122902
123	0xbc5f1d1d	-0.013617781
124	0x3d30ed0f	0.043194827
125	0x3e61ba95	0.22043832
126	0x3d866efc	0.06564137
127	0xbd44a541	-0.04800916
128	0x3b88108a	0.0041523622
129	0xbd541ef8	-0.051787347
130	0xbd250daf	-0.040296253
131	0x3d1714aa	0.03688494
132	0xbd38c992	-0.045114107
133	0xbc7f81ed	-0.015594942
134	0x3cf47f4b	0.029845854
135	0xbd41f5a4	-0.0473534
136	0x3d9b74fa	0.07590671
137	0xbd202fcc	-0.039108083
138	0x3d801779	0.06254477
139	0x3d88aac5	0.06673197
140	0x3d08a0d7	0.033356514
141	0xbb83d138	-0.0040227436
142	0x3d8fedce	0.070277795
143	0xbb96f97f	-0.004607379
144	0x3ca37165	0.019951532
145	0x3e611279	0.21979703
146	0x3da0c78a	0.07850559
147	0x3cccb3a6	0.024988007
148	0x3cba57f8	0.022747025
149	0xbb89111f	-0.004182949
150	0xbcf47162	-0.029839221
151	0x3c5acc10	0.013354316
152	0xbd08ac4e	-0.033367448
153	0xbc87ccda	-0.016577173
154	0xbbb2fc00	-0.0054621696
155	0x3e62d407	0.22151195
156	0xbcb3cf36	-0.021949392
157	0xbafb7006	-0.0019183166
158	0x3d109590	0.035298884
159	0x3c9896d0	0.0186266
160	0xbc924a69	-0.017857747
161	0x3bc793d8	0.0060906224
162	0x3c315d76	0.0108255055
163	0x3e9503d5	0.29104486
164	0xbbf5d7e9	-0.007502545
165	0x3d1923a9	0.037387524
166	0x3c6e225b	0.014534558
167	0xbd50b8f9	-0.050957654
168	0x3b4caee5	0.0031232175
169	0xbd0d38b5	-0.03447791
170	0xbbc43a0e	-0.005988366
171	0xbcb8059e	-0.022463616
172	0x3c120a55	0.008913596
173	0xbce43784	-0.027858503
174	0x3c5e2842	0.013559403
175	0x3b6a1d87	0.0035723166
176	0x3c8f4ce9	0.017492728
177	0xbb4eecd9	-0.0031574278
178	0x3d9ec1f3	0.07751837
179	0x3b904def	0.0044038217
180	0xbb7fcae1	-0.0039030837
181	0xbd39107e	-0.045181744
182	0x3d08dc29	0.033413086
183	0x3d4f91e1	0.05067623
184	0x3e2e5db2	0.1702793
185	0x3ce456ec	0.027873479
186	0x3cd887e7	0.02643199
187	0x3c4a6ce7	0.012355066
188	0xbd2fa774	-0.042884305
189	0x3d9d4a46	0.07680182
190	0x3c311850	0.010809019
191	0x3d81eae8	0.06343633
192	0x3cabf378	0.020990118
193	0xbc7c122e	-0.015385194
194	0xbc6ffd89	-0.01464785
195	0xbc00e460	-0.007866949
196	0xbc58b9d8	-0.013227902
197	0xbc843f59	-0.016143488
198	0x3d230a41	0.0398047
199	0x3d59f58e	0.053212695
200	0x3d3784ae	0.044804268
201	0x3e0e9449	0.13923754
202	0xbbf39acc	-0.0074342247
203	0x3d82ac7a	0.063805535
204	0x3c5306f2	0.012880074
205	0x3d230bf5	0.039806325
206	0x3d6837c7	0.05669382
207	0xbba2a6f3	-0.0049637496
208	0xbd2a196e	-0.041528158
209	0x3c6eed93	0.014583009
210	0x3caf558b	0.021403095
211	0x3d87a2a6	0.066228196
212	0xbd472fd2	-0.04862959
213	0x3d9991a0	0.07498479
214	0xbcf2931d	-0.029611165
215	0x3e617283	0.22016339
216	0xbcf522e8	-0.029923871
217	0xbc86b5c9	-0.016444104
218	0x3d8400c1	0.06445456
219	0x3c9b9b1f	0.018994866
220	0x3d4b509b	0.04963742
221	0x3d38ce2d	0.0451185
222	0x3d9f4e23	0.07778575
223	0xbceb97a4	-0.028758831
224	0x3d129ee8	0.035796076
225	0xbd2bdb7b	-0.04195736
226	0xbcf661b0	-0.030075878
227	0xba5093f6	-0.0007956618
228	0x3d266652	0.040624924
229	0x3d701323	0.058612
230	0x3c1d192e	0.009588523
231	0xbd11cc0b	-0.03559498
232	0xbc89bf25	-0.016814778
233	0x3c373f09	0.011184462
234	0x3d802082	0.062562004
235	0xbc92329b	-0.017846396
236	0xbd02cbb5	-0.03193255
237	0x3cd90709	0.026492612
238	0x3cd8f875	0.026485661
239	0x3d613925	0.054986138
240	0x3c65097c	0.013979312
241	0x3cf16291	0.029465945
242	0x3cbd16be	0.023082133
243	0x3d012306	0.03152754
244	0x3d22b1a8	0.039720207
245	0x3d6146d5	0.05499919
246	0xb937ba2f	-0.00017521599
247	0xbc43f8ec	-0.011961203
248	0x3d87721f	0.06613564
249	0x3c0677c3	0.008207264
250	0x3d61adf6	0.055097543
251	0x3d46e8e6	0.048561953
252	0x3d8e2faf	0.06942689
253	0x3d2492ec	0.040179178
254	0x3c6c3eff	0.014419316
255	0x3c978817	0.01849751

layer_3.bias f4 [8]
0	0x3a4d0b98	0.0007821857
1	0x3c7310a1	0.014835508
2	0x3c84c4c3	0.016207105
3	0xbc82fc24	-0.01598937
4	0xbc0d85f4	-0.008637894
5	0xbd2acd0e	-0.04169946
6	0xbd7327d1	-0.059364144
7	0x3cff5bea	0.031171758
