Assignment_26/Assignment_2_Car_Simulation/last_brain.pth (torch, 15074 bytes, 18 tensors)

fc1.weight f4 [30, 5]
000000 f7 53 df 3e 87 cf 44 3f d2 32 15 bf 79 42 6c 3e
       0.43618748 0.7687916 -0.5828067 0.23072232
000010 7b 74 1c 3e eb bd 14 bc 63 e8 0e 3f c9 0f 0d 3f
       0.15278809 -0.009078483 0.55823344 0.5510221
000020 4c a2 5d 3e 99 d2 3f 3e 1b 19 fc be 40 ab 51 be
       0.21643943 0.1873268 -0.49237904 -0.20475483
000030 47 1c 1b 3d 03 d3 73 3e 6f b6 a6 3e f1 6d 85 bf
       0.037868764 0.23810963 0.3256106 -1.0424176
000040 38 f5 ae be e6 f0 10 3f 4d 1f 2b 3f 74 b0 9f be
       -0.34171462 0.5661758 0.66844636 -0.3118931
000050 02 8c b4 bb 38 d7 87 3e 90 95 13 bc a7 2c 86 3f
       -0.0055098543 0.26531386 -0.009007826 1.0482377
000060 8d b1 82 bf 01 0f a5 3d b6 3f 82 3f 7e 9d 91 3f
       -1.0210434 0.080595024 1.0175693 1.1376188
000070 9a 0f 29 bf 6f b4 74 3f 98 bd 93 3d fb 5c 4a 3f
       -0.6603943 0.9558782 0.072138965 0.79048127
000080 f8 f7 7c 3f a4 55 78 bf c2 bf 41 3f 7b 28 b7 be
       0.9881587 -0.9700568 0.75683224 -0.35773072
000090 6c 60 a2 3e d0 aa e4 bd 00 2e 33 3b 36 73 11 be
       0.3171419 -0.111653924 0.002734065 -0.14204106
0000a0 7d a3 e4 bc c6 fb 9f 3f 0e 87 a3 be da ca e5 3e
       -0.027909989 1.249871 -0.31938976 0.44881326
0000b0 78 2b 89 3d c4 9b cf bf a7 22 98 3e fa 37 06 be
       0.06697744 -1.6219411 0.29713938 -0.13107291
0000c0 48 6b 23 bd b7 3b a4 be 84 41 d2 3c 09 b3 76 3c
       -0.039897233 -0.3207681 0.025666006 0.015057334
0000d0 bb 02 46 3f 49 16 8d bf 07 f2 51 3f 2d e0 30 3c
       0.77347916 -1.1022426 0.8200993 0.010795635
0000e0 e4 35 3a 3f ea d1 aa 3e 5f 2a 18 3f 62 76 62 bd
       0.7273848 0.33363277 0.59439653 -0.05528868
0000f0 94 bd 48 3e 8a 0c 96 be e9 02 1c bf 17 24 ce be
       0.19603568 -0.29306442 -0.6094194 -0.4026191
000100 86 6f b9 bd fb c2 dc bc ee df bf bd 7c 62 21 3f
       -0.090544745 -0.026948443 -0.09368883 0.630409
000110 6e b8 5d bd 96 18 e5 bd 26 c8 84 bc 8e e5 5f 3e
       -0.054130964 -0.1118633 -0.01620872 0.21864912
000120 1d 46 9a bb ca 19 ad 3f 92 d5 7e bf 25 03 bf bc
       -0.004708065 1.3523495 -0.9954463 -0.02331693
000130 b8 4c 8a bd 39 b7 6a 3e 85 8b 99 3f 4f 9c b1 bf
       -0.06752914 0.22921456 1.1995703 -1.3875827
000140 1c 3f 25 3e 59 fc 92 be 16 a9 74 3f 85 d3 98 3e
       0.16137356 -0.2870815 0.95570505 0.29848877
000150 5e a9 95 3e 46 4f c0 bf 78 ce 00 3f e4 28 8d 3e
       0.2923078 -1.5024192 0.50315046 0.2757026
000160 3d 16 34 3f db 69 4c bf ff 68 83 3e 51 35 04 bf
       0.7034643 -0.7984902 0.25666043 -0.51643854
000170 07 df 93 be 8d 64 7a 3d 4d 55 eb 3e b3 1f 2c 3e
       -0.28881094 0.06113105 0.45963517 0.16808967
000180 d6 7d 27 bf 70 3f 24 3f 53 fc 65 3f 5d e0 80 bf
       -0.65426385 0.641593 0.8983814 -1.006847
000190 f0 dc 4a 3e 35 10 20 3e 5b 51 19 3f 8d e8 1b 3e
       0.19810843 0.15631182 0.59889764 0.1522543
0001a0 a0 06 63 bf 60 0c 3d 3d 7a 67 7c be 93 ca ef 3e
       -0.88681984 0.04615438 -0.24648848 0.4683424
0001b0 81 a2 13 bd 1c 52 a1 be e4 48 f2 bc af 8b 9f 3d
       -0.036043648 -0.31507957 -0.029575773 0.077903144
0001c0 5b f8 71 3d a5 3c 98 3f ab b8 a0 bf bd 13 52 3e
       0.05907474 1.1893507 -1.2556356 0.20515342
0001d0 ce 2a a9 3e a8 cd 9d bf 04 87 1d 3e ec ba 3b bf
       0.3304047 -1.2328386 0.15383536 -0.73332095
0001e0 ed 97 86 3e ba e2 e6 3e 16 93 26 3f 97 ca 3d be
       0.26287785 0.45094854 0.65068185 -0.18534313
0001f0 1a cc 04 3f 8b f0 32 bc 45 25 b1 be 64 83 4b 3f
       0.51873934 -0.010921608 -0.34598747 0.7949736
000200 f6 09 81 bd b9 3c c2 bc 54 e6 a7 3e ab 04 75 3f
       -0.06300728 -0.023710595 0.32792914 0.9571025
000210 91 3a 23 bf 97 1d c9 3d d9 65 6d 3e 48 38 b2 be
       -0.6376124 0.09820097 0.23183383 -0.34808564
000220 0a ae 85 3e c0 ca a4 be 38 42 bf 3d d0 40 e8 3d
       0.26109344 -0.32185936 0.09338802 0.11340487
000230 d4 18 5d 3e a5 a5 e6 3e c5 23 ba 3e a8 43 a8 be
       0.21591502 0.45048252 0.36355415 -0.32864118
000240 ee a2 f5 3b 64 b4 3c be ff 25 4d be 1c 47 f2 bd
       0.0074962294 -0.18428189 -0.20034026 -0.11829969
000250 60 e9 6c be be 12 0b be
       -0.231359 -0.13581368

fc1.bias f4 [30]
000000 d9 37 94 3e 77 66 39 3e 98 93 34 be ca b5 07 3f
       0.28948858 0.18105493 -0.17634428 0.53011763
000010 1b cd 2e be 01 9c 88 bf 2c 38 27 bf ea 76 d9 be
       -0.17070429 -1.0672609 -0.65320086 -0.42473537
000020 ad dc 1f 3f 29 9f b1 3f d3 0b a6 3d 35 22 f1 3e
       0.624461 1.3876697 0.08107724 0.4709641
000030 12 19 36 be 04 45 94 3e 05 e2 a4 be 0e ac 40 3f
       -0.17783001 0.28958905 -0.3220369 0.75262535
000040 b9 af 06 3f 88 1b 22 3f 20 20 71 bd f4 0c df 3b
       0.5261188 0.6332326 -0.058868527 0.006806964
000050 ef 08 57 bf 7a 27 d5 3e c0 a4 58 3f e4 34 ff 3e
       -0.83998007 0.4163168 0.8462639 0.4984504
000060 8d a0 41 bf 14 44 f2 3e 2c 69 e8 3e ef 5d ca be
       -0.75635606 0.47317564 0.4539274 -0.3952479
000070 64 21 36 bf 8e 36 9f be
       -0.711447 -0.3109631

fc2.weight f4 [15, 30]
000000 64 49 47 bd bf e2 d3 3e c7 4e 24 3e 44 6b 55 bf
       -0.048653975 0.4138393 0.16045676 -0.833668
000010 82 39 a0 3e e8 6e 72 be e6 42 88 bd 8c 02 e9 bd
       0.31293875 -0.2367512 -0.06653385 -0.11377439
000020 12 b1 1a 3d 6e 95 af bf c7 0e 30 3f 80 ca ec bd
       0.037766524 -1.3717477 0.6877255 -0.11562061
000030 be b2 5f be 77 bd 95 3e 1f 7f 92 3e 9c b0 34 3f
       -0.21845528 0.29246113 0.2861261 0.70581985
000040 a8 e2 b2 bc 0e 33 d6 bf 8d c3 98 bd 6d af 1b bd
       -0.021836594 -1.6734331 -0.07459173 -0.038009096
000050 f5 be a8 3d f7 a6 86 3e db 11 4f 3f 1e c0 f0 be
       0.08239547 0.2629926 0.8088662 -0.47021574
000060 e6 5b 8f 3e fd 50 30 3e 7e 1f b2 3d 6c dd 4e bd
       0.279998 0.17218395 0.08697413 -0.050504133
000070 58 2f 2a 3e a0 fa e3 3b 90 f1 3e be c4 ad 76 be
       0.16619623 0.006957367 -0.18646836 -0.24089724
000080 ce 9b 3f 3d 0e 26 37 3f 7f 10 29 be bf 09 2f 3e
       0.046779446 0.7154244 -0.16510199 0.17093562
000090 63 25 6f 3d 8f 08 cd bd 9e f8 36 be 89 2c 7e 3f
       0.058385264 -0.10011398 -0.17868277 0.99286705
0000a0 3c 96 01 bf 0c b8 c5 bc de ea c0 3d 2a 06 c6 bd
       -0.50619864 -0.024135612 0.09419797 -0.096691445
0000b0 52 3d 81 be da aa 2f bf 70 73 14 3e 5e cf c3 3f
       -0.25242096 -0.68620074 0.14497161 1.5297658
0000c0 2e fe 86 3e cd c3 f9 bd 3c 19 57 be de a1 97 be
       0.263658 -0.12195549 -0.2100572 -0.29615682
0000d0 cb 68 5c bf f4 af af 3e 7f a8 43 3e 6a e7 dd bd
       -0.860974 0.3431393 0.19107245 -0.10835154
0000e0 c9 4f a9 bd b4 da e8 3d 2d 4b 18 be 60 e0 c1 3d
       -0.08267171 0.11369839 -0.14872427 0.09466624
0000f0 e2 4d 7d bd 50 46 aa be 74 0a 14 bd 5a f3 15 3f
       -0.061841853 -0.3325677 -0.03614278 0.5857445
000100 3f ee b6 bd 71 4d 8d 3e fc 00 a3 3e 58 ea 38 3d
       -0.089321606 0.27598146 0.3183669 0.045145363
000110 a5 d4 0b be ab 8d b1 3f ea 6d 15 bf 6c f2 01 be
       -0.13655336 1.3871359 -0.5837084 -0.12690133
000120 e3 f9 4d 3e 36 63 7e be bc 8a bf be 20 77 73 bf
       0.20114855 -0.24842533 -0.37410533 -0.95103645
000130 dd be 03 3e 2d ec c6 3f 7f 73 eb 3d 59 72 ac 3d
       0.12865777 1.5540825 0.114966385 0.084202476
000140 cd 00 5e be e6 fa 7e be df 71 88 bf 53 f4 a0 3e
       -0.21679993 -0.24900398 -1.0659751 0.31436405
000150 01 a4 ed b9 65 9a 33 be b7 f0 1f be 09 37 11 be
       -0.00045326355 -0.17539366 -0.15619169 -0.1418115
000160 eb e1 80 be 44 6f 1a 3e 7f 35 88 bd a3 81 bd 3e
       -0.25172362 0.15081507 -0.066508286 0.37012967
000170 93 c4 b2 3c 5f dd c6 be c4 41 e5 bc d6 7c 86 be
       0.02182225 -0.38840768 -0.027985461 -0.26267117
000180 57 7c a1 be e4 3e 34 bd bf af be bd e3 ac d1 bf
       -0.31540176 -0.04400529 -0.09310865 -1.6380886
000190 89 ef 32 3f ad aa 9b bc 9f ee c4 be d3 97 cf 3e
       0.6989675 -0.019002283 -0.38463303 0.4054552
0001a0 40 40 4f 3e 39 79 25 3f 8f 20 7d 3d db ac dc bf
       0.20239353 0.64638096 0.06179863 -1.7240251
0001b0 c4 fc 50 be 6f f0 34 3e 43 5d b2 3e 46 ff c0 3e
       -0.20408922 0.17669843 0.34836778 0.37694758
0001c0 07 98 63 3f 8c ef de be 29 04 10 3e ad c0 e0 3d
       0.8890385 -0.43542135 0.14064087 0.1097425
0001d0 73 17 03 3e 70 d0 5c 3c 29 7a be 3e b0 a1 a6 3c
       0.12801914 0.01347743 0.37202576 0.02034077
0001e0 b1 00 f0 3d fc 8a 92 3e a3 22 43 be 11 75 4c bf
       0.11718882 0.28621662 -0.19056182 -0.7986613
0001f0 25 ee 54 3e c4 60 40 be c0 a4 4e bc c0 f7 18 3d
       0.2079397 -0.18786913 -0.012612522 0.037345648
000200 c0 29 6c 3d 2e e2 ec bf b0 88 be 3e a2 e1 33 3e
       0.057657003 -1.8506525 0.3721366 0.17566541
000210 c9 6c 9d be 10 5f 91 3e 87 33 84 3e 96 8d 38 3f
       -0.3074706 0.2839284 0.25820562 0.72091043
000220 e2 4f b3 bd e3 d3 d5 bf fa ba a4 be ce 9b 6e 3e
       -0.08755471 -1.6705288 -0.32173902 0.23301622
000230 16 e0 34 3d 00 97 ac 3e 13 2d 28 3f f4 78 85 be
       0.044159018 0.33708954 0.6569378 -0.26068842
000240 d2 b4 0a bd 5c 15 f6 3d ea ee 2a 3e cc 4f 8a 3d
       -0.03386385 0.12015793 0.16692701 0.06753501
000250 de 69 94 3e af 75 00 be 2c d5 90 bd a7 31 7b be
       0.2898702 -0.12544893 -0.07071909 -0.2453066
000260 45 1c 05 bc 98 94 26 3f a2 95 0d be c2 bb ac 3e
       -0.008124416 0.65070486 -0.13826612 0.33736998
000270 fa 14 b3 3e 4c c0 f0 bd 89 b6 a1 b8 b5 d4 df 3f
       0.3497694 -0.11755428 -7.711078e-05 1.7486788
000280 40 cc 18 bf ca 53 b9 bc e8 cf d3 bc be a5 86 be
       -0.5968666 -0.022622962 -0.025855973 -0.26298326
000290 3a 75 36 be 75 fa b8 bd cb c8 06 be 3c 9d b6 3f
       -0.17818156 -0.09032146 -0.13162534 1.4266734
0002a0 3f 7a bc 3d d9 41 12 be a2 be 11 be 7e c0 fb bb
       0.09203004 -0.14282931 -0.14232877 -0.007682859
0002b0 87 77 f7 be 26 c0 c5 3e 4a c4 fe bd 32 c0 ac be
       -0.4833338 0.3862316 -0.12439783 -0.33740383
0002c0 ec cf 33 3e 88 b5 f3 3d 5a e8 91 3d d3 80 0f be
       0.17559785 0.11899859 0.07124396 -0.14013986
0002d0 33 30 a8 3e d4 f5 fc 3d ec 95 21 be c1 c6 78 bf
       0.32849273 0.123515755 -0.15779847 -0.97178274
0002e0 1c b7 8e 3e 6b 86 a7 be 9b 96 4f be a8 75 3c bd
       0.27874076 -0.3271974 -0.20272295 -0.046010643
0002f0 fd ce 67 3e e2 40 e6 bf de 58 6f 3e 00 c0 e6 3c
       0.22637554 -1.7988551 0.23373744 0.028167725
000300 a6 32 ac be 6a b6 d5 3b 37 47 96 3e d9 4c e0 3e
       -0.33632392 0.0065219896 0.29351208 0.4380863
000310 8d 45 84 be 15 c6 bb bf 8d 9b 5d be 31 9d 79 3c
       -0.25834313 -1.4669825 -0.21641369 0.015235231
000320 76 ac 16 3e 28 2d 9b 3d 7b 6b 22 3f 66 ab 20 be
       0.14714226 0.07576972 0.6344525 -0.15690383
000330 c8 52 32 3e c0 e2 92 bc 15 56 0d 3e 2c 3a 5d bd
       0.17414391 -0.017930388 0.13802369 -0.054010555
000340 7b 80 1c 3e da 44 08 3e 68 2d 82 be f5 b9 bf be
       0.15283386 0.13307515 -0.25425267 -0.3744656
000350 52 bb 30 3d e8 25 5a 3f 40 3a a8 bc 4a 38 87 3d
       0.043147393 0.8521409 -0.020535588 0.06602533
000360 e4 87 33 be 88 0a 31 bd bf 0c b6 bc 03 15 b9 3f
       -0.17532307 -0.043222934 -0.022222875 1.4459537
000370 ad ad 70 be e0 49 b3 3d c1 7a d1 3d ef e8 32 be
       -0.23503752 0.08754325 0.102284916 -0.1747167
000380 c8 60 95 be dc b7 04 bf a2 b3 5e 3e 50 04 ce 3f
       -0.291754 -0.5184305 0.21748212 1.6095066
000390 ed 37 bf 3d de 60 0a 3e 27 4b f3 bd f8 ab 72 be
       0.09336839 0.13513514 -0.118795685 -0.23698413
0003a0 fe 58 47 bf b0 7a b3 3e 25 56 c9 3d da d7 2b 3c
       -0.77870166 0.3505454 0.09830884 0.010488475
0003b0 f7 fa 48 bc 88 d3 a6 3c 49 53 5e be 86 60 26 3e
       -0.012266866 0.020364538 -0.21711458 0.16247758
0003c0 9b 77 4e 3e 96 0a a0 3e c6 58 0b 3d b2 d3 48 bf
       0.20162813 0.31258076 0.034020208 -0.7844802
0003d0 b4 ad b0 3d aa 3e 06 be e9 de 20 be 84 2a f4 3d
       0.08626881 -0.13109842 -0.15710033 0.11922172
0003e0 05 e3 d8 3a ea c4 e0 bf 4e a0 f3 3e f3 a5 01 bd
       0.0016547149 -1.7560093 0.4758324 -0.031652402
0003f0 f6 6d 19 be b8 89 b7 3e af 89 1f bd ff d4 ee 3e
       -0.14983353 0.3584726 -0.038949665 0.46646878

fc2.bias f4 [15]
000000 c9 51 06 3f 02 1d d3 be fe 9c 50 be ae 2b 9c bc
       0.52468544 -0.4123307 -0.20372388 -0.019063797
000010 77 b7 4a bc bf f1 04 bf d4 a2 37 3e ed 58 d6 3d
       -0.012372843 -0.51931375 0.17933208 0.1046618
000020 10 e7 ea bc 5f bf ec 3e c4 31 c9 3d a3 41 ed bd
       -0.028674632 0.46239755 0.09823945 -0.11584785
000030 2a e7 87 be db 35 1a bf 1d a6 8d 3e
       -0.26543552 -0.60238427 0.27665797

fc3.weight f4 [3, 15]
000000 e0 08 6b be ac 35 7a 3e 55 fe 32 3d 31 7f ab 3b
       -0.22952604 0.24434537 0.04369958 0.0052336683
000010 02 fc f6 bd c6 21 fa 3e ad 58 04 be 72 a1 8a bb
       -0.120597854 0.48853892 -0.12924452 -0.0042306716
000020 6e f8 41 be b4 ac 6d 3c 15 59 8a be bb 99 8b bc
       -0.18942425 0.014506508 -0.2702109 -0.017041078
000030 e4 12 e9 bd f6 28 c4 bb 3b 45 b5 3d 35 fb 2b 3e
       -0.11380556 -0.0059863282 0.08851095 0.16795047
000040 b8 db 8b be 60 12 6d 3c 88 e6 40 be fd 3f 48 be
       -0.2731607 0.014469713 -0.1883794 -0.1955566
000050 c9 9e 64 be cc 84 25 bf 2f e6 ee 3e f3 fb a8 be
       -0.22326197 -0.64655757 0.4665999 -0.33004722
000060 22 4a 61 3e 88 2d 18 bf eb 7a 42 be ab 45 34 bf
       0.22000936 -0.59444475 -0.18992202 -0.70418805
000070 66 f1 1a bf dd 88 0d 3f ce a1 e1 bd ee 99 71 be
       -0.60524595 0.5528696 -0.1101719 -0.23593876
000080 c1 3e 93 3d f0 92 2b bf 51 d3 84 be c5 57 9a 3e
       0.07189704 -0.67021084 -0.25942472 0.30145088
000090 24 04 df 3e d6 49 8e be 42 fc ca bc e2 07 76 3d
       0.43557847 -0.27790707 -0.024778489 0.06006611
0000a0 39 e1 aa 3d 22 82 d3 be 7d 31 fa be 1d 56 d0 bf
       0.08343739 -0.4131022 -0.48865882 -1.627628
0000b0 01 0a 79 3f
       0.9728089

fc3.bias f4 [3]
000000 e1 53 61 bf 7d 3f c6 3e 9d d7 6b 3e
       -0.88018614 0.38720313 0.23031469

exp_avg f4 [30, 5]
000000 f2 7d 45 be bb 7c 11 3d 32 da 17 3d d3 ff 0d bb
       -0.19286326 0.035519343 0.03707332 -0.0021667376
000010 d3 ff 0d 3b 99 bf af 3d fc 8a a8 3d 88 11 a5 3d
       0.0021667376 0.08581466 0.08229634 0.080599844
000020 5e 63 0c bc 5e 63 0c 3c 20 23 ca 1b 08 e5 1a 1c
       -0.008568613 0.008568613 3.3440796e-22 5.125034e-22
000030 43 9e c1 1d 96 f8 f8 9b 96 f8 f8 1b 1b bf 31 3d
       5.1250313e-21 -4.1188803e-22 4.1188803e-22 0.043395143
000040 ee 1a 27 3d 7e 50 23 3d 88 7f 10 3d 88 7f 10 bd
       0.040797167 0.039871685 0.035277873 -0.035277873
000050 ac e0 73 3d 2c cd 74 3d 2c 33 77 3d dd 23 70 bc
       0.059540436 0.05976598 0.060351536 -0.014656988
000060 dd 23 70 3c 59 32 e9 3e ab 65 a3 bd 82 5a b3 bd
       0.014656988 0.45546225 -0.07978376 -0.08757497
000070 2a eb 10 3c 2a eb 10 bc 7a c9 a3 3e 4c 14 60 bd
       0.00884513 -0.00884513 0.31989652 -0.054706857
000080 1a cb 6b bd 9b db e2 3b 9b db e2 bb 00 00 00 00
       -0.05756674 0.0069231517 -0.0069231517 0.0
000090 00 00 00 00 00 00 00 00 00 00 00 00 00 00 00 00
       0.0 0.0 0.0 0.0
0000a0 fe 16 8c 3c 2b 36 78 3c cf 08 e9 3c 10 f5 78 bc
       0.017100807 0.015149633 0.028446583 -0.015195146
0000b0 10 f5 78 3c 5e d1 40 bc 92 65 c7 3b 2f 57 47 3d
       0.015195146 -0.011768667 0.006085106 0.04866713
0000c0 98 40 a4 bc 98 40 a4 3c 71 98 51 bf 3f 9d 23 3e
       -0.020050332 0.020050332 -0.8187323 0.15977953
0000d0 b2 7e 37 3e 06 9c 3c 3b 06 9c 3c bb e5 5a 1b bd
       0.17919424 0.002877952 -0.002877952 -0.03792848
0000e0 f8 bb 09 3c 6e d5 36 3c 08 15 3a bb 08 15 3a 3b
       0.008406632 0.011159284 -0.0028393883 0.0028393883
0000f0 40 5b bc 3e ab 76 df 32 87 4f 60 1d c9 14 12 b3
       0.36788368 2.601458e-08 2.9687268e-21 -3.4012178e-08
000100 c9 14 12 33 d6 33 a4 3d 88 ae 9e 3d 78 00 93 3d
       3.4012178e-08 0.080176994 0.07748133 0.07177824
000110 c6 d0 87 bb c6 d0 87 3b fc 85 40 bc d2 ff 28 bc
       -0.004144761 0.004144761 -0.011750694 -0.010314899
000120 e2 65 5a bc 70 ed 0e bc 70 ed 0e 3c 87 44 a5 bc
       -0.013329955 -0.008723602 0.008723602 -0.020174278
000130 b7 e7 f8 bb e1 d5 1f bd ca e6 ee bb ca e6 ee 3b
       -0.007595982 -0.03902233 -0.007290696 0.007290696
000140 0b 76 bd 3d 2e f6 3b bc cf c2 8d bc a0 54 0b ba
       0.092510305 -0.011472268 -0.017304806 -0.00053150393
000150 a0 54 0b 3a f4 b2 9e 3c a2 65 59 3b 16 97 ae 3d
       0.00053150393 0.01937244 0.003317215 0.08524911
000160 45 4a 9b 3c 45 4a 9b bc 43 61 ae 3e fb 7e d5 39
       0.018956313 -0.018956313 0.3405858 0.00040721134
000170 79 56 5d b9 65 ca aa 37 65 ca aa b7 9f 9d 20 be
       -0.00021108416 2.0359827e-05 -2.0359827e-05 -0.15685128
000180 1d 60 9c ba 3a 14 27 bc a3 58 8b ba a3 58 8b 3a
       -0.00119305 -0.0101976935 -0.0010631274 0.0010631274
000190 13 b2 77 be 30 67 20 3d 86 8d 32 3d 84 b8 77 bc
       -0.24189024 0.039160907 0.043592 -0.015119676
0001a0 84 b8 77 3c f1 e4 60 be 38 9f 3c 3d 96 6e 28 3d
       0.015119676 -0.21962334 0.04605028 0.041121088
0001b0 06 60 99 ba 06 60 99 3a 23 46 b1 bd 8b fc 57 bd
       -0.0011701591 0.0011701591 -0.08655956 -0.052731078
0001c0 83 67 eb bd 2a ca 59 bc 2a ca 59 3c 4a c1 13 3f
       -0.11494353 -0.013292829 0.013292829 0.5771681
0001d0 4a e2 8b ba 30 9a 73 3c 6f b9 35 3b 6f b9 35 bb
       -0.0010672298 0.014868304 0.0027728935 -0.0027728935
0001e0 73 60 9f be f3 10 02 3d 6b e9 33 3d 02 89 3e 3b
       -0.31128272 0.031754445 0.043923777 0.0029073362
0001f0 02 89 3e bb 59 9f 7a 3d 8f 4f 7a 3d 20 dc 54 3d
       -0.0029073362 0.061187122 0.06111103 0.05196774
000200 e6 69 87 bb e6 69 87 3b 1d 7e 3f bd a5 04 07 3c
       -0.004132497 0.004132497 -0.04675113 0.008240853
000210 a8 56 53 3c 52 a9 31 bb 52 a9 31 3b 00 00 00 00
       0.012899078 -0.002710898 0.002710898 0.0
000220 00 00 00 00 00 00 00 00 00 00 00 00 00 00 00 00
       0.0 0.0 0.0 0.0
000230 23 0f 4e be 10 bc c3 3c 75 dc ea 3c 54 b3 bb b9
       -0.20122962 0.023893386 0.028669575 -0.0003580103
000240 54 b3 bb 39 00 00 00 00 00 00 00 00 00 00 00 00
       0.0003580103 0.0 0.0 0.0
000250 00 00 00 00 00 00 00 00
       0.0 0.0

exp_avg_sq f4 [30, 5]
000000 f0 8f 23 4e 88 c4 e5 3a 33 b5 ea 3a 11 a7 3e 39
       6.860298e+08 0.0017529884 0.0017906785 0.00018182049
000010 11 a7 3e 39 b2 a0 67 4c fe 17 04 3c e2 b1 05 3c
       0.00018182049 6.0719816e+07 0.008062361 0.008160086
000020 34 7d 53 3a 34 7d 53 3a fb c3 2f 2f 2c 6a ce 2f
       0.0008067668 0.0008067668 1.5985784e-10 3.754662e-10
000030 f7 42 21 33 b6 53 85 2f b6 53 85 2f 00 54 31 3c
       3.7546638e-08 2.425204e-10 2.425204e-10 0.01082325
000040 68 2d 1d 3c 87 d2 30 3c 38 24 b8 3b 38 24 b8 3b
       0.009593345 0.010792381 0.005619552 0.005619552
000050 fe 76 9f 4a ff 7c 4b 3b 05 89 57 3b e4 66 85 39
       5.225343e+06 0.0031049845 0.0032888066 0.00025444396
000060 e4 66 85 39 20 36 85 4e 4f 6e e6 3b 50 fb fe 3b
       0.00025444396 1.1174584e+09 0.007032193 0.0077814236
000070 74 ec b2 38 74 ec b2 38 dc 21 da 4d 8e 99 51 3b
       8.531744e-05 8.531744e-05 4.574565e+08 0.0031982395
000080 10 2e 5e 3b 73 40 5a 38 73 40 5a 38 00 00 00 00
       0.0033901967 5.2035273e-05 5.2035273e-05 0.0
000090 00 00 00 00 00 00 00 00 00 00 00 00 00 00 00 00
       0.0 0.0 0.0 0.0
0000a0 46 0d 5a 49 b9 f8 c8 3a b8 6d 5a 3a 5a fd 8f 39
       893140.4 0.0015332914 0.00083323894 0.00027463847
0000b0 5a fd 8f 39 bf ea f5 3c 76 2c 80 3d ef 1d fc 3c
       0.00027463847 0.030019162 0.0625848 0.030775992
0000c0 24 f7 a9 3c 24 f7 a9 3c d9 eb 97 50 32 1a f4 3c
       0.020747729 0.020747729 2.039053e+10 0.029797647
0000d0 c1 15 fd 3c 6a 85 e8 3a 6a 85 e8 3a af 11 1f 4d
       0.030894162 0.0017739956 0.0017739956 1.6679602e+08
0000e0 d2 ed 17 39 2a 7e 1d 39 72 0e 06 38 72 0e 06 38
       0.00014489077 0.00015019687 3.1961543e-05 3.1961543e-05
0000f0 0d bd 30 4f 69 48 dd 39 84 46 0e 39 c4 74 2d 39
       2.9651796e+09 0.00042206355 0.00013568444 0.00016542064
000100 c4 74 2d 39 d5 46 61 4b b1 2e f2 3b 34 3f e0 3b
       0.00016542064 1.4763733e+07 0.00739082 0.006843472
000110 4d 43 3a 3a 4d 43 3a 3a 22 bf 34 4b 92 e5 92 3b
       0.00071053655 0.00071053655 1.184541e+07 0.0044829333
000120 b7 83 96 3b d9 4f 02 3a d9 4f 02 3a 89 63 74 4c
       0.0045933384 0.00049710047 0.00049710047 6.406506e+07
000130 66 5e 14 3c 0f 20 f6 3b 41 bf 57 3b 41 bf 57 3b
       0.0090557095 0.007511146 0.0032920393 0.0032920393
000140 7a 72 8e 4d c8 7d 07 3a dc 94 05 3a bf 62 dd 38
       2.9873338e+08 0.0005168584 0.0005095729 0.00010556494
000150 bf 62 dd 38 d8 e3 2f 3d c8 08 84 3d 0f b3 49 3d
       0.00010556494 0.042941898 0.064469874 0.04924303
000160 28 b2 ea 3c 28 b2 ea 3c 99 4c 1c 4f 04 c2 a2 38
       0.028649405 0.028649405 2.6222656e+09 7.7609e-05
000170 c6 b3 3b 38 f9 80 de 37 f9 80 de 37 e0 e4 c1 4d
       4.47517e-05 2.652452e-05 2.652452e-05 4.0662528e+08
000180 90 06 89 3a 78 24 2f 3a 38 d4 12 39 38 d4 12 39
       0.0010454226 0.00066811545 0.00014002703 0.00014002703
000190 cc e6 cf 4e 12 c8 1b 3b 32 df 29 3b eb 1d b1 39
       1.7440046e+09 0.0023770374 0.0025920388 0.0003378236
0001a0 eb 1d b1 39 f8 5d ee 4e d2 e8 37 3b e5 26 23 3b
       0.0003378236 1.9995679e+09 0.0028062356 0.002489501
0001b0 50 ee bf 39 50 ee bf 39 9d ed f7 4c 6b cd 45 3c
       0.00036607916 0.00036607916 1.2998577e+08 0.012072901
0001c0 44 f2 36 3c 0a 6e a4 3b 0a 6e a4 3b 02 17 cc 4f
       0.011166159 0.0050180005 0.0050180005 6.84812e+09
0001d0 7b fa 11 3b b9 99 dc 3a ca 4a 81 3a ca 4a 81 3a
       0.0022274542 0.0016830481 0.0009864208 0.0009864208
0001e0 ac 49 d2 4e e1 c3 8a 3b b0 5e 7f 3b 21 70 0a 3a
       1.7640218e+09 0.0042347764 0.003896635 0.0005280991
0001f0 21 70 0a 3a 67 48 bc 4b ca 34 8e 3b cf 81 6b 3b
       0.0005280991 2.4678606e+07 0.004339789 0.0035935526
000200 ac 43 d2 39 ac 43 d2 39 86 83 b6 4c ed 53 80 39
       0.0004010474 0.0004010474 9.568978e+07 0.00024476592
000210 e8 8e 49 39 cf 0c 37 38 cf 0c 37 38 00 00 00 00
       0.0001922209 4.364253e-05 4.364253e-05 0.0
000220 00 00 00 00 00 00 00 00 00 00 00 00 00 00 00 00
       0.0 0.0 0.0 0.0
000230 61 2c b0 4e 64 1b e5 3a f9 04 ec 3a fe d0 90 39
       1.4778492e+09 0.0017479477 0.0018006853 0.00027621532
000240 fe d0 90 39 00 00 00 00 00 00 00 00 00 00 00 00
       0.00027621532 0.0 0.0 0.0
000250 00 00 00 00 00 00 00 00
       0.0 0.0

exp_avg f4 [30]
000000 4d d7 c6 bc ef 36 15 bd 08 e5 1a 1c 63 72 0e 3d
       -0.024272585 -0.036429342 5.125034e-22 0.034777056
000010 c4 9f 18 bc 74 40 12 3d b3 2b ca 3c 00 00 00 00
       -0.009315435 0.035706 0.02467904 0.0
000020 0b ad 97 3b 79 b2 c6 3d 72 3f a7 bd 6b 40 31 bb
       0.0046287826 0.0970201 -0.08166398 -0.0027046453
000030 12 b0 2d 33 1f 28 1a bd f2 36 3c bc 88 ac a2 bd
       4.0439836e-08 -0.03763592 -0.011487709 -0.07943064
000040 d3 bd 4c 3c e3 c2 65 3d 82 4b 3c b9 94 1e a0 bb
       0.0124964295 0.05609406 -0.00017957206 -0.0048864577
000050 80 92 da bc ac 7c c0 bc 20 de c0 bd 7c 06 47 3c
       -0.026681185 -0.023496948 -0.09417367 0.012147542
000060 5b 36 51 bd ad da ca bc ec ca ae bb 00 00 00 00
       -0.051077228 -0.024762476 -0.0053342488 0.0
000070 bf 48 f1 bc 00 00 00 00
       -0.029453633 0.0

exp_avg_sq f4 [30]
000000 47 fe 40 3a 43 33 22 3b 48 6c ce 2f 14 2e 73 3c
       0.0007362109 0.0024749793 3.754812e-10 0.014842529
000010 ab e2 fb 39 7e 8d 8e 39 e5 5f 40 39 00 00 00 00
       0.00048043331 0.0002718977 0.0001834627 0.0
000020 67 8f da 3a 21 a5 dc 3d 5d 55 2a 3c 5b a2 d8 38
       0.0016674817 0.10773683 0.010396329 0.00010329924
000030 9c 7f 2e 3a c5 80 3b 3b 6d ca 90 3a 12 28 68 3c
       0.00066565885 0.0028610688 0.0011046656 0.01416971
000040 3c d4 fc 39 60 5b e6 3d 07 07 0d 39 58 8f 5d 3a
       0.00048223312 0.11247897 0.00013449426 0.0008451841
000050 89 e2 7e 3a a9 a4 ba 3a 40 4e a9 3c 90 e2 5f 3b
       0.00097230874 0.0014239746 0.020667195 0.0034162141
000060 41 6f 26 3b ac c6 ef 3a 9c f2 65 39 00 00 00 00
       0.0025395902 0.0018293462 0.00021929521 0.0
000070 33 a6 8c 3a 00 00 00 00
       0.0010730684 0.0

exp_avg f4 [15, 30]
000000 25 14 9d bd 3c c7 3e 3d dc 8a d3 1b 74 ea 0a ba
       -0.07669858 0.046576723 3.4996758e-22 -0.00052992185
000010 ba a4 16 bc f5 50 d2 3d c6 14 b0 3d 00 00 00 00
       -0.009194547 0.102693476 0.08597712 0.0
000020 a0 6f 01 3d df 45 b8 3b 9b cd 59 3d 74 37 0a 3d
       0.031600595 0.0056235637 0.053174596 0.03374429
000030 d8 8f 42 bd f5 11 a8 3c 8f 65 56 bc 9a 81 e9 bc
       -0.04750046 0.020516375 -0.013085737 -0.028504182
000040 80 c4 00 bc de 9f ac bb d4 46 7d bd 61 f0 55 bd
       -0.007859349 -0.005268081 -0.061835125 -0.052231196
000050 23 83 1a bc 19 77 55 bb 50 10 e7 bc 75 eb 54 bd
       -0.0094306795 -0.0032572208 -0.02820602 -0.05198236
000060 f5 6a 6a 3c 40 a7 91 3c 59 16 46 bd 00 00 00 00
       0.014307727 0.017779946 -0.048361156 0.0
000070 d1 29 b1 3b 00 00 00 00 09 e7 a9 3d c3 23 52 bd
       0.005406596 0.0 0.082960196 -0.051303636
000080 eb 89 df 9b 26 fd 56 ba 34 cb 56 3c 5d b1 ec bd
       -3.6981383e-22 -0.0008201174 0.013109971 -0.11557267
000090 c9 7a c9 bd 00 00 00 00 9d 3d 05 bd d1 a6 13 bc
       -0.098378725 0.0 -0.032529462 -0.00901194
0000a0 d4 4b 82 bd 5d aa 12 bd a4 4b 4e 3d aa 37 c8 bc
       -0.06362119 -0.035807002 0.050365105 -0.024440605
0000b0 bb 2c 88 3c c1 ef 07 3d 68 84 73 3b 20 f8 f1 3b
       0.016622892 0.03318763 0.0037157778 0.007384315
0000c0 e4 49 86 3d 70 8c 61 3d 6e d3 18 3c 2c 8b cd 3a
       0.06557062 0.055065572 0.0093277525 0.0015681735
0000d0 d3 c2 08 3d 10 64 74 3d 8a 02 96 bc e0 81 bc bc
       0.033388924 0.05966574 -0.018311758 -0.023011148
0000e0 71 f1 54 3d 00 00 00 00 ec aa ef bb 00 00 00 00
       0.05198807 0.0 -0.0073140766 0.0
0000f0 4c 85 91 3c f7 08 05 bc 4a 5a 19 9b 24 4b 1e 3a
       0.017763756 -0.008119813 -1.2685037e-22 0.00060384185
000100 60 ec 66 3a 5f e1 86 bc 00 2a 56 bc 00 00 00 00
       0.00088090263 -0.016464887 -0.013071537 0.0
000110 f1 a1 b5 bb 15 4a 84 39 7b 9b eb bb f3 cd c6 bb
       -0.0055429866 0.00025232197 -0.0071901656 -0.0060670315
000120 71 7f 2b 3c 71 bb 4f bb 7d 56 ec 3a be 18 98 3b
       0.010467396 -0.0031697417 0.0018031147 0.0046416214
000130 15 b1 82 3b 88 94 4b 3a c2 36 5f 3c aa 26 33 3c
       0.003988395 0.00077659683 0.013623895 0.010934511
000140 e0 a2 44 3b 48 bc b9 3a 62 34 94 3b 29 3e 2c 3c
       0.0030004308 0.0014170492 0.004522846 0.010512867
000150 a4 5c 0b 39 50 de 12 bb f1 14 46 3c 00 00 00 00
       0.00013290584 -0.002241034 0.012089954 0.0
000160 51 ed 7c 3a 00 00 00 00 38 06 79 3b 09 f1 91 bb
       0.00096484 0.0 0.0037998091 -0.0044537825
000170 57 ef 89 1a c6 0f 30 bb cd 5b dc 3b 39 cf 72 bc
       5.7048546e-23 -0.002686487 0.0067248107 -0.014819914
000180 80 09 80 bc 00 00 00 00 7e 3b a9 3a e7 fc c7 bb
       -0.01562953 0.0 0.0012911407 -0.0061031464
000190 fd 37 78 bc 4c cd 16 ba 98 de 07 3a ad 99 b4 bb
       -0.015150067 -0.00057526375 0.00051830104 -0.0055114836
0001a0 7c eb b6 3b b0 6a ce 3b 2f 84 13 bc 4e b5 69 3b
       0.005582271 0.0062993392 -0.009003683 0.0035661045
0001b0 48 1d 34 3a 58 1f 13 39 a5 a2 a0 ba 3c 88 6d bb
       0.00068708183 0.00014030689 -0.0012255503 -0.0036244532
0001c0 2c 90 ee 3b 58 5e 19 3c 0a 32 d9 bb 8a 94 08 bc
       0.00728037 0.009360872 -0.0066282796 -0.008336196
0001d0 59 bf d3 3a 00 00 00 00 bc 63 5d bb 00 00 00 00
       0.0016155049 0.0 -0.003378137 0.0
0001e0 5a 29 2c bd f2 80 a5 3c 10 ae 7a 1b 02 5c 4b bb
       -0.042031623 0.020203087 2.0735758e-22 -0.0031030183
0001f0 d1 7e 7a ba 38 07 28 3d fc 60 fc 3c 00 00 00 00
       -0.000955564 0.04102251 0.030807965 0.0
000200 1c 21 52 3c 44 fb 93 bb 85 ed 56 3c a8 33 7c 3c
       0.012825277 -0.004516037 0.0131181525 0.015393175
000210 22 29 cd bc cd 83 e4 3b 38 c6 7e bb 0e 86 40 bc
       -0.025044028 0.0069737197 -0.0038875472 -0.011750711
000220 0b c8 34 bc e0 47 1a bb 2f 7e 05 bd e4 94 da bc
       -0.011034022 -0.0023541376 -0.03259104 -0.026682325
000230 d1 0f 81 bb c2 fd 8e bb c9 be 3a bc 0e ee c2 bc
       -0.003938653 -0.0043637464 -0.011398026 -0.023795154
000240 30 be 03 3b 03 78 66 3b ff b0 f3 bc 00 00 00 00
       0.0020102374 0.0035166747 -0.029747484 0.0
000250 40 2e 3a 39 00 00 00 00 db 69 26 3e 0e f3 c6 bd
       0.00017755572 0.0 0.16251318 -0.09714328
000260 24 2b 57 9c d6 17 1e 3b 04 4e 93 3c 72 2f 5a be
       -7.119329e-22 0.0024123094 0.017981537 -0.21307161
000270 9c 0b 35 be 00 00 00 00 1f 97 85 bd 1d cf 0b bc
       -0.1768021 0.0 -0.06522965 -0.008533266
000280 fd 21 da bd 66 ad 90 bd 21 6e cd 3d 93 0a 2c bd
       -0.10651014 -0.07064323 0.10030771 -0.04200227
000290 84 4a da 3c ef 2d 73 3d 71 49 9c 3c 5f 4e 37 3c
       0.02664686 0.059369978 0.019077988 0.011188119
0002a0 35 b5 05 3e bb 79 e1 3d 2a 4b 99 3c 1a bb 01 3c
       0.13057406 0.11009546 0.018712599 0.007918144
0002b0 be 60 70 3d 87 1d de 3d ff dc ed bc 3a a2 10 bd
       0.05868601 0.10845476 -0.029036043 -0.03531096
0002c0 4c b3 d4 3d 00 00 00 00 32 44 37 bc 00 00 00 00
       0.10385761 0.0 -0.011185693 0.0
0002d0 61 e9 54 bd d4 55 85 3c de 65 64 1b aa be c5 bb
       -0.05198038 0.016276278 1.8892633e-22 -0.006034692
0002e0 d6 2e 2f bb 0e 0f 04 3d 86 47 a0 3c 00 00 00 00
       -0.0026730797 0.03224092 0.019565355 0.0
0002f0 70 a6 03 ba 28 5e 68 bc 90 3a cf b9 2a d8 1e 3c
       -0.00050220545 -0.014182605 -0.0003952575 0.009695092
000300 e9 75 ce bc 92 00 d5 3b 20 86 c2 bb 03 34 6c bc
       -0.025202708 0.006500312 -0.005936399 -0.014416697
000310 24 b9 52 bc 2a cc 01 bc 42 4f 06 bd 22 9f c3 bc
       -0.012861524 -0.007922212 -0.03279043 -0.023879591
000320 a2 20 08 3b f8 bb 9e bb ad bd 7b bc 8a 34 f9 bc
       0.0020771404 -0.004844185 -0.015365046 -0.03042056
000330 88 f1 b6 b8 72 b1 2f 3b b8 44 32 bd 00 00 00 00
       -8.723425e-05 0.0026808647 -0.043522567 0.0
000340 20 19 1d b9 00 00 00 00 80 83 8e 3b cb 22 e9 3b
       -0.00014982047 0.0 0.004349172 0.0071147433
000350 42 87 0e 1a 48 5f 6e 3b ff 58 01 bb 3c 22 95 3c
       2.9474172e-23 0.003637271 -0.0019736884 0.0182048
000360 5f 5e a3 3c 00 00 00 00 86 60 40 3c 43 d5 34 3c
       0.01994246 0.0 0.011741763 0.011037174
000370 23 77 a5 3c 6a 0c d0 3b 7d 56 d0 ba a2 60 72 3b
       0.02019841 0.006349136 -0.0015894916 0.0036983867
000380 20 2e af ba 38 04 e4 ba f6 9e b7 3b b0 da 38 3b
       -0.0013365187 -0.0017396277 0.0056036664 0.002820652
000390 4e 5e 08 bb d6 45 87 bb b1 69 91 bb ce d9 02 3b
       -0.0020808163 -0.004128198 -0.004437648 0.0019966247
0003a0 ac d8 8e ba c8 a6 c2 b9 6f b9 bd 3b 21 6a a9 3b
       -0.0010898313 -0.00037126825 0.0057899277 0.0051701223
0003b0 30 7e 1a 3c 00 00 00 00 0f 52 1e 3b 00 00 00 00
       0.0094294995 0.0 0.0024157797 0.0
0003c0 77 3c 83 bd aa 95 02 3d 91 95 97 1b 0a e1 91 bb
       -0.06408017 0.031881012 2.507751e-22 -0.0044518756
0003d0 3a 47 8a bb 63 42 8a 3d 9e e0 52 3d 00 00 00 00
       -0.0042199166 0.067509435 0.051483743 0.0
0003e0 1e b9 87 3c 2e ee de bb 66 5a bc 3c 55 d5 ba 3c
       0.016567763 -0.0068032956 0.022992324 0.022806803
0003f0 f1 2d 17 bd c2 03 4e 3c bd ac 09 bc 9a 65 ab bc
       -0.036909048 0.012574138 -0.008403 -0.02092247

exp_avg_sq f4 [15, 30]
000000 b3 de 08 4d 16 ba 2d 44 43 80 40 2f 93 23 1a 3a
       1.4351851e+08 694.9076 1.7507866e-10 0.0005879935
000010 8c 3c 46 44 39 2a d5 49 79 ca 8f 49 00 00 00 00
       792.94604 1.7462471e+06 1.1779351e+06 0.0
000020 22 cc 71 40 3c 50 3d 39 6f ab 3d 48 7f 1f 88 47
       3.7780843 0.00018054334 194221.73 69694.99
000030 47 24 01 4c ce 32 f8 40 a6 0d 70 43 53 59 3f 42
       3.3853724e+07 7.7562017 240.05331 47.83723
000040 fd f5 b8 4b 43 ca 2f 3a a4 c9 58 4c b2 fd 9b 4b
       2.4243194e+07 0.00067058596 5.6829584e+07 2.0446052e+07
000050 ff 80 d7 4b 06 9b 8b 49 23 83 bd 3f a8 98 0d 4c
       2.8246526e+07 1.1436488e+06 1.4805645 3.7118624e+07
000060 92 58 41 4c 31 66 10 44 c5 af 9f 4c 00 00 00 00
       5.068449e+07 577.59674 8.372177e+07 0.0
000070 1b 3f 02 4c 00 00 00 00 45 cb 19 4d ea 6e 46 44
       3.414334e+07 0.0 1.6126472e+08 793.73303
000080 fc f3 56 2f 93 c3 4a 3a b5 8a 5f 44 8e 98 ef 49
       1.9549867e-10 0.00077348313 894.1673 1.9627698e+06
000090 4a e5 a1 49 00 00 00 00 b8 ea 89 40 a1 a7 c0 39
       1.3262492e+06 0.0 4.309902 0.00036745987
0000a0 b7 7e 55 48 e7 9a 99 47 b3 14 11 4c 47 f2 0b 41
       218618.86 78645.805 3.8032076e+07 8.74665
0000b0 ea 58 87 43 a5 44 5a 42 aa d0 cf 4b 8f 8c 76 3a
       270.69464 54.567036 2.723874e+07 0.00094051
0000c0 69 8d 73 4c fa 4f af 4b 75 2b f2 4b c9 f6 9c 49
       6.3845796e+07 2.2978548e+07 3.1741674e+07 1.2858491e+06
0000d0 a3 07 d7 3f 13 13 1f 4c 1a 45 59 4c c5 f0 24 44
       1.6799206 4.1700428e+07 5.695601e+07 659.762
0000e0 74 73 b3 4c 00 00 00 00 fb 5b 12 4c 00 00 00 00
       9.4084e+07 0.0 3.8367212e+07 0.0
0000f0 51 10 1e 4c d4 50 3a 44 79 53 ca 2d 46 de 54 39
       4.143546e+07 745.26294 2.300181e-11 0.00020300699
000100 fc 06 4e 44 35 5f 15 48 1f a7 ae 47 00 00 00 00
       824.10913 152956.83 89422.24 0.0
000110 e8 21 58 40 c2 c8 7b 38 d9 59 2a 47 74 f1 e5 46
       3.3770695 6.0030034e-05 43609.848 29432.727
000120 ab aa 17 4b 1f f2 00 41 b7 7c 79 43 2f 26 2b 42
       9.939627e+06 8.059112 249.48717 42.78729
000130 e7 9d df 4a a1 7e 5c 39 e8 30 7e 4b 11 2f b6 4a
       7.3274755e+06 0.00021028008 1.6658664e+07 5.9698005e+06
000140 d3 b4 f7 4a 11 5a 98 48 62 13 88 3f 99 77 26 4b
       8.1168415e+06 312016.53 1.0630915 1.0909593e+07
000150 ec 96 5f 4b a3 e7 1a 44 63 79 bc 4b 00 00 00 00
       1.4653164e+07 619.6193 2.4703686e+07 0.0
000160 2b f3 15 4b 00 00 00 00 99 7e b4 4b 50 c5 14 44
       9.827115e+06 0.0 2.3657778e+07 595.083
000170 21 b0 a3 2c 21 26 a9 39 c1 3a 20 44 12 15 a4 46
       4.652293e-12 0.000322626 640.918 21002.535
000180 c6 a6 15 46 00 00 00 00 69 8e 2f 40 40 0a 5d 3a
       9577.693 0.0 2.743067 0.00084320083
000190 1f dc b5 46 03 43 9e 46 2c 74 ad 4a 90 8f c8 40
       23278.06 20257.506 5.683734e+06 6.2675247
0001a0 43 07 42 43 3f f5 0a 42 f1 ae 81 4a 79 1a 24 3a
       194.02837 34.7395 4.2494645e+06 0.0006260048
0001b0 dc 5f 11 4b dc f2 51 4a d3 72 8d 4a ac bd 2c 48
       9.52726e+06 3.439799e+06 4.6349855e+06 176886.69
0001c0 15 6c 51 3f 46 80 be 4a 7c f1 ff 4a c5 71 f7 43
       0.81805545 6.242339e+06 8.38675e+06 494.88882
0001d0 8c a9 59 4b 00 00 00 00 48 44 ab 4a 00 00 00 00
       1.4264716e+07 0.0 5.612068e+06 0.0
0001e0 f0 1a 7a 4c a1 31 22 44 ed 28 87 2e 05 47 b9 39
       6.5563584e+07 648.77545 6.146359e-11 0.00035338863
0001f0 9c f0 37 44 57 d5 07 49 aa 20 b2 48 00 00 00 00
       735.7595 556373.44 364805.3 0.0
000200 a9 79 45 40 80 51 cb 39 6d 24 9d 47 7b 8d 12 47
       3.0855505 0.000387799 80456.85 37517.48
000210 0e b9 6d 4b 74 3f e6 40 45 bd 5e 43 84 52 1c 42
       1.5579406e+07 7.1952457 222.73933 39.08058
000220 5b 42 2c 4b 0d 3f f0 39 e5 62 c7 4b 02 20 0f 4b
       1.1289179e+07 0.00045823344 2.6133962e+07 9.379842e+06
000230 7f 7c 44 4b 24 1c f9 48 cf a4 87 3f 2e 61 82 4b
       1.2876927e+07 510177.12 1.059717 1.7089116e+07
000240 2e b9 b0 4b 6f d5 06 44 55 2c 13 4c 00 00 00 00
       2.3163484e+07 539.3349 3.8580564e+07 0.0
000250 8f ab 6d 4b 00 00 00 00 43 07 03 4e bd 34 f5 44
       1.5575951e+07 0.0 5.495728e+08 1961.6481
000260 4d 28 47 30 55 d0 01 3b 99 21 da 44 0d 17 e5 4a
       7.245305e-10 0.0019808013 1745.0499 7.5068225e+06
000270 92 1a 9c 4a 00 00 00 00 0f f0 33 41 09 b8 e5 39
       5.115209e+06 0.0 11.246108 0.000438154
000280 c0 0c 3d 49 77 f3 76 48 a9 62 f6 4c a0 96 88 41
       774348.0 252877.86 1.29176904e+08 17.073547
000290 6f 12 04 44 62 5c 0e 43 f7 b6 af 4c 1d 00 10 3b
       528.288 142.36087 9.212511e+07 0.0021972724
0002a0 a2 e1 4e 4d c3 31 95 4c ac 86 ce 4c a1 19 87 4a
       2.1693085e+08 7.8220824e+07 1.0827914e+08 4.4269605e+06
0002b0 db ab 95 40 27 0e 07 4d 82 1d 39 4d 11 da cb 44
       4.6772285 1.4161573e+08 1.9410742e+08 1630.8146
0002c0 7a 6c 98 4d 00 00 00 00 a7 8d f9 4c 00 00 00 00
       3.1965574e+08 0.0 1.30837816e+08 0.0
0002d0 98 47 33 4c af 0c ab 43 57 66 60 2e da 2c 4c 3a
       4.699709e+07 342.0991 5.10226e-11 0.0007788666
0002e0 75 76 ba 43 37 22 01 49 04 d5 af 48 00 00 00 00
       372.92545 528931.44 360104.12 0.0
0002f0 29 4d df 3f db 24 d3 3a 06 49 7a 47 61 9d c6 46
       1.7445422 0.0016109006 64073.023 25422.69
000300 0b cd 28 4b 75 78 69 40 fd ca e1 42 b2 90 b0 41
       1.1062539e+07 3.647977 112.89646 22.070652
000310 15 cd f2 4a fb e6 b7 3a c3 bd 8d 4b 34 28 cd 4a
       7.9561065e+06 0.001403063 1.857831e+07 6.722586e+06
000320 52 45 0d 4b 5e d2 b7 48 4f fc 1b 3f 9f 20 39 4b
       9.258322e+06 376466.94 0.6093187 1.2132511e+07
000330 01 9a 7d 4b 0f 47 8e 43 6a e6 d1 4b 00 00 00 00
       1.6620033e+07 284.55515 2.751202e+07 0.0
000340 86 b7 2a 4b 00 00 00 00 dc aa 02 4b 74 68 dc 43
       1.1188102e+07 0.0 8.56342e+06 440.81604
000350 8b c5 ae 2b 8b 3a c1 39 53 53 f6 43 e6 79 b2 45
       1.2418273e-12 0.00036855447 492.65097 5711.2373
000360 a3 1f 26 45 00 00 00 00 b9 3f ee 3f 1c e7 47 3a
       2657.9773 0.0 1.8613197 0.00076256855
000370 82 95 fc 45 96 70 27 46 74 63 f9 49 9e 2c 9a 40
       8082.6885 10716.146 2.0429905e+06 4.8179464
000380 49 24 15 43 b5 90 bc 41 5c a9 bf 49 dc 74 2e 3a
       149.14174 23.570658 1.5700915e+06 0.00066549866
000390 f2 4e 51 4a ba 78 9b 49 67 93 cd 49 47 a8 76 47
       3.4293085e+06 1.2736232e+06 1.6840769e+06 63144.277
0003a0 73 e6 f6 3e 4c 13 09 4a b6 95 3a 4a 7c 49 b7 43
       0.48222694 2.245843e+06 3.0570055e+06 366.5741
0003b0 16 14 a1 4a 00 00 00 00 7e a2 f8 49 00 00 00 00
       5.278219e+06 0.0 2.0368158e+06 0.0
0003c0 aa 17 87 4c e6 d1 99 43 c5 af c5 2e c5 a4 bd 39
       7.082734e+07 307.63983 8.989746e-11 0.00036171652
0003d0 49 7a a5 43 f6 6d 77 49 23 eb 2b 49 00 00 00 00
       330.95535 1.0134714e+06 704178.2 0.0
0003e0 0a 67 d6 3f 51 44 d5 39 3d 6a cb 47 de 1b 07 47
       1.6750195 0.00040677426 104148.48 34587.867
0003f0 04 b5 7c 4b f4 31 4f 40 12 62 c8 42 2a 9c a9 41
       1.6561412e+07 3.237424 100.19154 21.201252

exp_avg f4 [15]
000000 50 7a ab bb dc 1a 35 3b 47 a2 14 3b d6 48 b2 bb
       -0.0052330866 0.0027634418 0.0022679733 -0.0054408116
000010 96 34 23 bc 1e 6a 6d 3c b7 7d a4 bc 96 d1 2e 3c
       -0.009961268 0.014490632 -0.020079477 0.010670086
000020 fb 3a 7e bc bb 08 c4 3b 68 35 cc bc 83 a3 c3 bb
       -0.015516992 0.005982486 -0.02492781 -0.00597042
000030 7b b0 b6 bc fa 7e 8e bc e8 c0 96 3c
       -0.02230095 -0.017394532 0.018402532

exp_avg_sq f4 [15]
000000 40 31 aa 39 d4 83 08 3a 78 44 b2 38 85 dd 07 3a
       0.0003246162 0.0005207632 8.500455e-05 0.000518285
000010 2b 80 9b 39 31 be 86 3a a5 d9 82 3a a2 7e fd 39
       0.00029659396 0.001028007 0.0009983076 0.0004835027
000020 f7 61 a3 39 be f7 17 39 6d e3 67 3a 08 dc 94 39
       0.00031162772 0.00014492773 0.000884584 0.00028392696
000030 9e 5c a7 3a 65 1a 4a 3b 2b 82 bd 3a
       0.0012768691 0.0030838486 0.0014458349

exp_avg f4 [3, 15]
000000 3c 9b 0a be 0b 70 e1 bc 80 74 dc bd 14 e3 2d bd
       -0.1353578 -0.027519247 -0.10764408 -0.042452887
000010 20 42 51 bd dc b3 98 bc 92 b5 40 3e f3 d5 b5 3d
       -0.051088452 -0.018640451 0.18819264 0.08878698
000020 f9 12 88 bd 33 6c 4e bc 33 eb d4 3c a2 1c 9f bc
       -0.06644244 -0.012599039 0.025991058 -0.019422833
000030 36 38 86 3c 79 28 86 be 44 63 79 bd ec b5 db bb
       0.016384225 -0.26202753 -0.060885683 -0.0067050364
000040 c6 5c 57 3c e1 02 09 3d 4e da 08 bd 40 1f 2c bd
       0.0131446775 0.03345001 -0.033411317 -0.04202199
000050 df ab 0e 3d 85 8f 80 bd 74 5b 12 3d 52 48 08 bd
       0.034831878 -0.06277374 0.035731748 -0.033272095
000060 3c 63 43 3c 28 87 1a bd 78 d9 38 bd 55 5a 50 bd
       0.011925515 -0.03772655 -0.04512927 -0.050867397
000070 1f 08 1e bc 68 35 20 3d e2 73 ad 3b 41 a1 4e 3b
       -0.009645491 0.039113432 0.0052933553 0.003152922
000080 9f af ff 3b 81 20 02 3c 19 f4 46 bb 01 2a 16 bc
       0.007802918 0.00794232 -0.0030357896 -0.009165288
000090 ae 94 69 bc 4e 6c bb 3a 26 f7 7f 3b 7e eb 58 3b
       -0.014256639 0.0014299245 0.0039057224 0.0033099349
0000a0 44 34 0e bc ff 74 9d 3b 58 75 86 ba 46 01 bc 3c
       -0.008679453 0.004805207 -0.001025836 0.022949826
0000b0 4a c4 38 bc
       -0.011277268

exp_avg_sq f4 [3, 15]
000000 4d 30 56 4c 80 fe 27 4c f9 9d 0b 4b 6d 3f 87 4a
       5.6148276e+07 4.4038656e+07 9.149945e+06 4.4317985e+06
000010 db d4 7a 4b 65 76 90 4c 31 62 10 4c 37 51 c1 49
       1.6438491e+07 7.5739944e+07 3.7849284e+07 1.5836549e+06
000020 7f 57 7d 4d e4 95 17 4b fe 40 83 4c 2d ff aa 4a
       2.6564811e+08 9.934308e+06 6.881483e+07 5.6032225e+06
000030 31 7c 03 4d 11 a9 57 4a 67 4f a1 4c f3 7a 22 3c
       1.3787214e+08 3.5333802e+06 8.4572984e+07 0.009917009
000040 37 91 b4 3b d1 e8 f1 3b 11 54 36 3c 6e 75 33 3c
       0.005510475 0.00738249 0.011128441 0.01095329
000050 23 61 7e 3c a4 91 41 3c b1 85 3b 3c 25 5b 85 3c
       0.015526089 0.011814509 0.011445449 0.016278813
000060 3b f8 24 3c 06 d4 34 3c fa 70 2e 3c 38 29 41 3c
       0.010068948 0.011036878 0.010647053 0.0117896125
000070 62 a4 40 3c 11 1c 57 3c 43 2e 7e 3b 89 28 17 3b
       0.011757942 0.01312925 0.0038784898 0.0023064932
000080 e5 8a 44 3b 09 66 b0 3b ba 95 a8 3b be ea f2 3b
       0.0029990014 0.0053832573 0.005144802 0.0074132374
000090 19 c0 ac 3b b3 f6 b1 3b 75 c4 f3 3b 02 69 7c 3b
       0.0052719233 0.00543102 0.007439191 0.0038514738
0000a0 c9 40 9d 3b 78 34 ad 3b 98 4f cd 3b bd a1 10 3c
       0.0047989828 0.005285796 0.006265592 0.008827624
0000b0 eb d0 02 3c
       0.00798438

exp_avg f4 [3]
000000 e7 27 22 3d 0c 0b c5 3c e0 5a d0 3a
       0.039588835 0.02405312 0.0015896223

exp_avg_sq f4 [3]
000000 af d9 45 3b 8d c3 19 3b e0 91 9d 3a
       0.0030189564 0.0023462505 0.0012021624
